system/system/saiv/textrecognition/stride/mSTR_Latin_LSTM.tflite (tflite, 564160 bytes, 26 tensors)

dense/bias f4 [352]
000000 b4 da b6 be 9a cf 6b be c0 c8 a3 be 1f fc aa be
       -0.35713732 -0.23028412 -0.31989098 -0.33395478
000010 dd 22 6a be a9 bc 99 be e9 c0 da be b2 c9 b1 be
       -0.22864862 -0.3002675 -0.42725304 -0.34724194
000020 a6 3c cb be 94 32 b2 be 35 e9 a0 bd 3c 14 83 be
       -0.3969471 -0.34804213 -0.07856981 -0.25601375
000030 56 a9 96 be 02 aa ad be 11 95 45 be 1a 1e 8d be
       -0.29426068 -0.33918768 -0.19295146 -0.27562028
000040 92 83 1a be b1 3a d6 be 81 b6 22 be 7a b4 01 bf
       -0.15089253 -0.41841653 -0.15889932 -0.5066601
000050 81 e0 94 be 86 ca 54 be db 29 6f be d3 1f 83 be
       -0.29077533 -0.20780382 -0.2335581 -0.25610217
000060 2b 12 54 be 07 32 b2 be 82 ae b0 be 85 6d 23 be
       -0.20710056 -0.34803793 -0.3450814 -0.15959747
000070 4e d6 4b be 03 bd a1 bd c9 a1 a4 be 3f 49 c1 be
       -0.1990597 -0.07897379 -0.32154682 -0.37751195
000080 65 3f c1 be 96 f0 bd be 2b e4 ac be a3 a9 cc be
       -0.3774368 -0.37097615 -0.33767828 -0.39973173
000090 d4 8a 3b be f8 66 b3 be 2b 7c 86 be cc 82 86 be
       -0.18314677 -0.35039496 -0.26266608 -0.26271665
0000a0 24 f3 3f bd d5 68 7b be 77 23 bf be 75 96 89 be
       -0.046862736 -0.24551709 -0.37331745 -0.26872602
0000b0 42 d2 71 be a2 66 2b bf bb 3c 95 be 25 d1 a2 be
       -0.23615363 -0.6695348 -0.29147896 -0.3180019
0000c0 52 47 83 be f4 40 56 be 41 ec 83 be 85 4b af be
       -0.2564035 -0.20923215 -0.25766185 -0.34237304
0000d0 78 c1 b5 be 53 0b 21 be e5 04 4a be 63 29 5d be
       -0.35499167 -0.15726976 -0.1972843 -0.21597819
0000e0 9a 45 e7 be f3 f5 99 be e7 09 92 be 72 2b cb be
       -0.4517029 -0.30070457 -0.2852318 -0.39681584
0000f0 f3 cd d4 be d8 ba e1 be e0 9f 2a be c9 f7 c0 be
       -0.41563377 -0.44087863 -0.1666255 -0.37689045
000100 79 94 91 be ea fa 45 be a7 f8 6c bd a6 d7 97 be
       -0.28433588 -0.19333997 -0.05785432 -0.29656714
000110 04 82 2d be c0 4b a9 be cc 0c d3 be 1a 97 04 bf
       -0.16944128 -0.33065605 -0.412207 -0.5179306
000120 bd d7 f5 be f3 be 2d be f3 e8 76 be 2e 32 bb be
       -0.48016158 -0.16967373 -0.241123 -0.36561722
000130 db 1e e8 be dc 70 9a be d1 d1 d6 3c 97 86 c9 bd
       -0.4533604 -0.3016423 0.026223095 -0.09840124
000140 88 38 9e be 3c a6 0e 3d 9d b0 e5 be e6 13 ba be
       -0.30902505 0.034826502 -0.44861308 -0.36343306
000150 ef 2d 80 bd 86 bd 4b be 99 61 e3 be 83 63 87 be
       -0.06258761 -0.19896516 -0.444104 -0.2644311
000160 87 5c bb be 7f 00 a8 bd f3 d3 76 be cb 2d 06 be
       -0.3659403 -0.082032196 -0.2410429 -0.13103406
000170 dc 74 9b be 20 da be be 2b 2f 49 be f3 fb 4b be
       -0.30362594 -0.3727579 -0.196469 -0.1992033
000180 60 dc 4e be 41 da 4b bd d4 22 56 3e e1 a5 1d be
       -0.20201254 -0.04976869 0.20911723 -0.15395309
000190 7f 45 b4 be 0b 0a 86 3d 87 1d 78 be a6 b3 48 be
       -0.3520927 0.06544884 -0.24230014 -0.1959978
0001a0 d7 7d ca 3d ab 16 36 be 39 06 6b be 2b bc 15 be
       0.09887283 -0.17782085 -0.22951593 -0.14622562
0001b0 a1 ee c2 bd ae 8c 08 be 05 98 28 be fc b3 96 3d
       -0.09518171 -0.13334915 -0.16464241 0.07358548
0001c0 b2 4c 53 be 4f 75 91 be db ac 32 be 52 91 ae bd
       -0.20634726 -0.28409812 -0.17448752 -0.085238114
0001d0 6e 01 b1 be 8e b8 7c bd 17 ad 9e 3c 2b ac 0a be
       -0.34571403 -0.061699443 0.019369645 -0.1354224
0001e0 c8 b0 76 be 9e 42 9c 3a 7b 42 ce bd b8 6a 45 be
       -0.24090874 0.0011921709 -0.10071274 -0.19278991
0001f0 2e 0b 32 bd f9 b7 87 be 61 5e 76 3d 6d 98 2b 3d
       -0.043467693 -0.26507547 0.0601486 0.04189341
000200 be 1b 26 be 52 c9 03 3d dd 80 9c be 10 ba eb bd
       -0.1622152 0.032174416 -0.30567065 -0.11510098
000210 16 14 43 be 03 0f ef bb 79 f9 21 be 9e e5 0f be
       -0.19050631 -0.0072954907 -0.15817823 -0.14052436
000220 25 26 8e be 51 c5 e4 bd 6e d7 d7 be f1 7d 50 be
       -0.27763477 -0.111704476 -0.42156547 -0.20360543
000230 e0 44 91 bd 7b 11 61 be df 28 38 be 94 5c 1f be
       -0.07093215 -0.21979325 -0.17984341 -0.1556266
000240 d5 a9 64 be c5 68 72 be 34 19 d6 bd 4e a6 a9 be
       -0.22330411 -0.23672779 -0.10454026 -0.33134693
000250 80 8d 07 bf 62 cb fd bd 35 44 96 be be f4 fe bd
       -0.52950287 -0.12392308 -0.29348913 -0.124490246
000260 9b 16 59 be 8c fe 84 be 36 2b 45 be 5e 2d 6a be
       -0.2120003 -0.25975454 -0.19254765 -0.22868869
000270 85 a4 52 be 7f a6 8d be c1 d6 28 be c3 46 7e be
       -0.20570572 -0.2766609 -0.16488172 -0.24831681
000280 b7 0c a7 be ac ee a9 be f6 49 01 3b 91 66 cd bd
       -0.32626888 -0.33189905 0.0019727922 -0.100293286
000290 19 29 37 be 61 db 63 be 36 f2 ba bd fa 4a 54 be
       -0.17886771 -0.22251655 -0.09128229 -0.20731726
0002a0 db 4f a1 be 03 22 91 be cc 69 82 be c8 74 13 be
       -0.31506237 -0.2834626 -0.25471342 -0.14400017
0002b0 d8 a7 17 be e8 b0 ee bd 6b 36 26 be 64 d1 1d be
       -0.14810121 -0.11654836 -0.16231696 -0.15411907
0002c0 45 5f 88 be 86 31 1c be 7c 64 e3 bd 51 38 a2 bd
       -0.26635185 -0.15253267 -0.1110315 -0.07920898
0002d0 8d c9 d4 bc 1c fc 13 be d7 16 77 be 7a 3e d5 be
       -0.025975013 -0.14451641 -0.24129806 -0.41649228
0002e0 3d 2e 90 be c6 ed 6a be 74 9b 1f be f9 07 d4 be
       -0.28160277 -0.22942266 -0.15586644 -0.41412333
0002f0 22 f6 f3 bd 11 09 25 bc c1 51 3a be fd ff 49 be
       -0.119121805 -0.010072962 -0.18195249 -0.19726558
000300 d4 4f b7 be 6e 16 91 be 8e 10 ad be a0 2f d2 be
       -0.35803092 -0.28337425 -0.33801693 -0.4105196
000310 73 94 0a be f9 9f 4c bc c8 19 41 be d3 41 75 be
       -0.13533191 -0.012489312 -0.18857491 -0.23950891
000320 68 b0 6f be 6f 55 17 be 19 6c 36 bd 3d 70 ad bc
       -0.23407137 -0.14778684 -0.044536684 -0.021171683
000330 fe 4a 9f bd 61 9a bc bd 3f e1 1e bd 92 9c 97 bc
       -0.077779755 -0.09209133 -0.03878903 -0.018507276
000340 bb a1 09 be 6b ff 20 be 1c c1 5e be 93 e7 c0 bd
       -0.13440602 -0.15722434 -0.21753353 -0.09419169
000350 7a df 7e be 6c e5 91 be 95 bd 0b be f9 0f 94 be
       -0.24889937 -0.28495347 -0.13646539 -0.28918436
000360 70 b0 90 be 7f c3 91 be 34 f5 97 be 82 bc 7a be
       -0.2825961 -0.28469464 -0.29679263 -0.24485973
000370 6e 60 1f be 44 de 3d bd f1 50 65 be 31 19 6f be
       -0.15564129 -0.046354547 -0.22394158 -0.23349454
000380 e7 2b 76 bd f5 93 c0 bd 31 90 b1 be b9 bc 78 be
       -0.060100462 -0.094032206 -0.34680322 -0.24290742
000390 16 f5 8f be b3 e2 9a bd 74 dd 3f bd 84 b7 7d bb
       -0.28116673 -0.07562771 -0.046842054 -0.003871412
0003a0 95 df a8 be 32 69 a9 be 43 3a 0d bf b9 5c 9e be
       -0.3298308 -0.3308807 -0.55167025 -0.30930117
0003b0 89 90 ce be 2d e6 07 bf 3f 28 37 c0 0b 9a 93 be
       -0.40344647 -0.53085595 -2.8618314 -0.28828463
0003c0 a5 b1 d8 bd d7 c3 7b bf 3b cd 9b bf 9c f4 8b bf
       -0.10580758 -0.983457 -1.2172006 -1.0934024
0003d0 5b 02 31 c0 1c bd 92 bf af 17 6f bf 22 13 97 be
       -2.7657688 -1.1463962 -0.93395513 -0.29506785
0003e0 b3 cc 8d 3c 55 92 a0 be 6d 9c 3a 3e a7 cb 8e 3d
       0.017309522 -0.31361642 0.18223734 0.06972437
0003f0 04 2b 64 be 0b a8 5c 3d e9 8e c0 bf dd e1 f0 3d
       -0.22282034 0.053871196 -1.5043613 0.1176183

recog/birnn/bidirectional_rnn/bw/rnn3/cell_bias f4 [164]
000000 5d 32 bb 3c 15 ff e5 bd c5 13 3e be 91 1a 33 bc
       0.022851164 -0.11230294 -0.18562229 -0.010931627
000010 fe 67 e6 3c c4 18 5e bd 16 d7 92 be 39 f0 dc bc
       0.02812576 -0.054222837 -0.28679723 -0.026970016
000020 f4 71 cd 3d 2b d6 23 3d 49 8d 59 bc be 41 91 be
       0.100315005 0.03999917 -0.013278314 -0.2837047
000030 2c f1 be bc fa 27 00 3d 0b dd 0f 3d 80 bd 54 bc
       -0.02330836 0.031288125 0.035122912 -0.012984633
000040 45 27 46 3e f2 67 2a 3e 22 f4 3c 3e 18 c7 dd bd
       0.19350918 0.16641214 0.18452504 -0.1082899
000050 16 e5 ff 3c 0e 0c 41 3d b3 4b 03 be 1f fa 6d 3c
       0.031237166 0.047130637 -0.12821846 0.014524966
000060 a7 49 09 be 47 c0 00 3e 06 a7 44 3d a7 ba 2b 3c
       -0.13407002 0.12573348 0.04801085 0.010481513
000070 4c d7 27 be 27 52 94 3d 02 99 19 3a 74 e9 aa bc
       -0.16390723 0.07242232 0.0005859287 -0.020863272
000080 3c b2 b3 bd fa 9d d6 3d eb bd e3 bd 1f 1d cb 3d
       -0.0877423 0.104793504 -0.11120208 0.09917664
000090 36 4b f5 bd 76 b4 de 3b f5 20 fe bd 61 e3 27 be
       -0.11977236 0.006796415 -0.1240863 -0.16395332
0000a0 5d 0b 1d be d2 85 a1 3d bf 21 1e 3c 0e 6c bb bd
       -0.15336366 0.07886852 0.0096516 -0.09151469
0000b0 4f 4d 8b 3e 8b 58 dc 3d 39 03 eb bd 29 f5 1d be
       0.2720742 0.10759076 -0.11475224 -0.15425552
0000c0 ae ff 1d 3e ac d5 6a bc 66 b7 2a 3e 22 98 82 be
       0.15429565 -0.01433317 0.16671523 -0.25506693
0000d0 44 60 2d 3d 12 94 2c 3d ef ee 22 3e 40 3f 99 3d
       0.042328134 0.0421334 0.15911458 0.07482767
0000e0 b3 6b 7e be 39 30 90 3d 0b 73 04 3d 69 54 38 be
       -0.24845771 0.07040448 0.032336276 -0.1800095
0000f0 b6 a3 0f 3d 9b 27 f2 3c 58 a7 ea 3d 80 44 3d 3d
       0.035068236 0.029559901 0.114576995 0.046207905
000100 6d 94 0e 3d 4e a3 68 bd b4 00 f9 bd 3a 18 7d bd
       0.03480952 -0.056796364 -0.12158337 -0.061790682
000110 24 61 a4 3e 72 d1 f6 3c 8b 1f a6 3c 39 5c 80 3b
       0.32105362 0.030129168 0.020278713 0.003917244
000120 45 cb 87 bd dd 74 6a be 0e 19 47 3e f3 eb c1 3d
       -0.066305675 -0.22896142 0.19443151 0.09468832
000130 9e ce 3c be a9 cc 2e bd dd 64 01 3e 93 52 f9 3b
       -0.18438193 -0.042675648 0.12636133 0.0076087206
000140 4c b8 8d 3d 99 31 f9 bc 00 12 6e 3c 4a 87 af 3d
       0.069199175 -0.030419158 0.014530659 0.08570726
000150 f0 68 d1 bd a3 33 dd bd d5 84 9e bd 2e c1 9a 3c
       -0.10225093 -0.108008645 -0.077401794 0.018890943
000160 f3 c6 a3 3d 8b 9b ef 3d 76 9f 8b 3d 38 24 93 bd
       0.07996931 0.11699589 0.06817524 -0.071846426
000170 5a 1a e6 3c 47 20 32 3e e7 cd 14 3e c2 26 08 3d
       0.028088737 0.17395125 0.1453167 0.033240087
000180 54 d4 00 be f3 2a 63 3d 92 ce 35 bd e8 1a f9 bd
       -0.12580997 0.05546088 -0.044386454 -0.12163335
000190 5f 20 02 be cb 26 8a bd f5 35 85 3d 71 63 55 3c
       -0.12707661 -0.067456804 0.06504432 0.013024197
0001a0 f7 90 4f 3c 15 9a 4c 3d 1e 2d d4 bc 37 f8 c0 3d
       0.01266884 0.04995163 -0.02590042 0.09422343
0001b0 e3 09 59 bd 3c 1d 6d bd d7 36 16 bd ce 76 0b bb
       -0.052987944 -0.05788921 -0.036673393 -0.002128053
0001c0 15 7d 1b 3e e4 98 e1 3b 9e 7e cf bd 7f 47 4b 3d
       0.15184434 0.006884681 -0.10131572 0.04962873
0001d0 74 b5 f1 bb 39 37 03 3e fb 06 30 3d 17 f6 d1 3d
       -0.007376367 0.12814035 0.042975407 0.10252016
0001e0 7c f5 1a be fe 31 2b 3c 9f 8d 7e bd 95 95 50 3e
       -0.15132707 0.010448931 -0.06214678 0.20369561
0001f0 3c f3 a0 bd 30 18 92 be 80 96 bc 3d 0e b6 14 be
       -0.07858893 -0.2853408 0.09208393 -0.14522573
000200 57 55 b0 bd 87 03 a8 bc 00 d2 8c 3d c3 9d d8 bd
       -0.08610027 -0.020509494 0.06875992 -0.10576966
000210 4e 4b 6f 3d e0 22 b1 3d 7b 33 05 be c2 bf 36 be
       0.058421426 0.0864923 -0.1300792 -0.17846587
000220 8f 0f 91 bd a6 ab 7c 3e cb 0a 11 3e be 32 aa bc
       -0.07083046 0.24674854 0.14164273 -0.020776149
000230 c1 86 1f 3d 1d 17 8d 3e 8e e6 8f 3d 2b cd d8 bd
       0.03894687 0.27556697 0.07026397 -0.10586008
000240 41 80 01 be 86 e8 fc bc db 9c d3 bc 01 c8 20 be
       -0.12646581 -0.030872595 -0.02583163 -0.15701295
000250 12 02 de 3d fc 88 bd bd 03 11 bb bd fc 06 e7 bd
       0.10840239 -0.09254643 -0.09134104 -0.11280629
000260 c6 69 e8 3c 4d de cc 3c f4 8c 8a 3d 6e 06 4b bc
       0.02837075 0.025008345 0.06765166 -0.01239167
000270 a6 cb 20 3e e9 47 a0 3c bd d4 71 be de b8 c6 bd
       0.15702686 0.01956554 -0.2361631 -0.09703229
000280 ad 57 27 bc a8 84 b5 bc d8 c4 1e be 4d b1 97 3d
       -0.010213775 -0.022157982 -0.15504777 0.07406864

recog/birnn/bidirectional_rnn/bw/rnn3/cell_to_cell_w i1 [164, 164] scale=0.016114658 zero_point=0
000000 f6 01 01 09 f8 10 ff 01 09 05 fa ff 04 01 04 fd
       -0.16114658 0.016114658 0.016114658 0.14503191 -0.12891726 0.25783452 -0.016114658 0.016114658 0.14503191 0.08057329 -0.09668794 -0.016114658 0.06445863 0.016114658 0.06445863 -0.04834397
000010 fc fc fd fd f8 04 fd 03 fb fc f5 fb ff fd f6 fa
       -0.06445863 -0.06445863 -0.04834397 -0.04834397 -0.12891726 0.06445863 -0.04834397 0.04834397 -0.08057329 -0.06445863 -0.17726123 -0.08057329 -0.016114658 -0.04834397 -0.16114658 -0.09668794
000020 06 ef 06 03 0d 05 fc 0c f9 01 fc 01 ff 05 0d 00
       0.09668794 -0.27394918 0.09668794 0.04834397 0.20949055 0.08057329 -0.06445863 0.19337589 -0.1128026 0.016114658 -0.06445863 0.016114658 -0.016114658 0.08057329 0.20949055 0.0
000030 03 fb fd 00 f9 fe fc f9 f6 fe 02 01 fd fc fd 04
       0.04834397 -0.08057329 -0.04834397 0.0 -0.1128026 -0.032229315 -0.06445863 -0.1128026 -0.16114658 -0.032229315 0.032229315 0.016114658 -0.04834397 -0.06445863 -0.04834397 0.06445863
000040 04 f1 f7 fd 04 fe 08 fd 08 fd fc 01 fc 08 01 fe
       0.06445863 -0.24171987 -0.14503191 -0.04834397 0.06445863 -0.032229315 0.12891726 -0.04834397 0.12891726 -0.04834397 -0.06445863 0.016114658 -0.06445863 0.12891726 0.016114658 -0.032229315
000050 fc 00 fe 02 ff f9 ff 02 06 fc f8 06 f8 12 00 f3
       -0.06445863 0.0 -0.032229315 0.032229315 -0.016114658 -0.1128026 -0.016114658 0.032229315 0.09668794 -0.06445863 -0.12891726 0.09668794 -0.12891726 0.29006383 0.0 -0.20949055
000060 fa 09 04 f2 f4 0d 01 02 fb 0a 01 fd f5 07 07 fe
       -0.09668794 0.14503191 0.06445863 -0.2256052 -0.19337589 0.20949055 0.016114658 0.032229315 -0.08057329 0.16114658 0.016114658 -0.04834397 -0.17726123 0.1128026 0.1128026 -0.032229315
000070 09 fd 00 03 ff fc fd f1 04 01 1b ff 02 fb 05 ff
       0.14503191 -0.04834397 0.0 0.04834397 -0.016114658 -0.06445863 -0.04834397 -0.24171987 0.06445863 0.016114658 0.43509576 -0.016114658 0.032229315 -0.08057329 0.08057329 -0.016114658
000080 09 f7 ff 01 01 0a 0d 03 06 03 02 e6 f7 02 05 fd
       0.14503191 -0.14503191 -0.016114658 0.016114658 0.016114658 0.16114658 0.20949055 0.04834397 0.09668794 0.04834397 0.032229315 -0.4189811 -0.14503191 0.032229315 0.08057329 -0.04834397
000090 f6 fa fe fb 02 02 08 04 01 03 ff fc 09 01 f7 04
       -0.16114658 -0.09668794 -0.032229315 -0.08057329 0.032229315 0.032229315 0.12891726 0.06445863 0.016114658 0.04834397 -0.016114658 -0.06445863 0.14503191 0.016114658 -0.14503191 0.06445863
0000a0 05 f8 00 01 ff fa 03 fe fe 04 02 06 11 04 ed f8
       0.08057329 -0.12891726 0.0 0.016114658 -0.016114658 -0.09668794 0.04834397 -0.032229315 -0.032229315 0.06445863 0.032229315 0.09668794 0.27394918 0.06445863 -0.3061785 -0.12891726
0000b0 00 f7 ff 06 fd fc e9 01 f7 e9 f9 0b 06 04 f8 00
       0.0 -0.14503191 -0.016114658 0.09668794 -0.04834397 -0.06445863 -0.37063712 0.016114658 -0.14503191 -0.37063712 -0.1128026 0.17726123 0.09668794 0.06445863 -0.12891726 0.0
0000c0 04 fd ea ff ed f0 09 fd 08 23 fd 02 0d fe 01 fe
       0.06445863 -0.04834397 -0.35452247 -0.016114658 -0.3061785 -0.25783452 0.14503191 -0.04834397 0.12891726 0.564013 -0.04834397 0.032229315 0.20949055 -0.032229315 0.016114658 -0.032229315
0000d0 03 f5 fe f8 00 fc fe 01 fb 02 fe fd e3 f8 fd fb
       0.04834397 -0.17726123 -0.032229315 -0.12891726 0.0 -0.06445863 -0.032229315 0.016114658 -0.08057329 0.032229315 -0.032229315 -0.04834397 -0.46732506 -0.12891726 -0.04834397 -0.08057329
0000e0 f6 09 01 00 04 f0 04 0b fb f4 13 01 ff 02 f1 06
       -0.16114658 0.14503191 0.016114658 0.0 0.06445863 -0.25783452 0.06445863 0.17726123 -0.08057329 -0.19337589 0.3061785 0.016114658 -0.016114658 0.032229315 -0.24171987 0.09668794
0000f0 00 02 02 ff fc 06 01 05 ef 02 f3 01 00 01 0a ec
       0.0 0.032229315 0.032229315 -0.016114658 -0.06445863 0.09668794 0.016114658 0.08057329 -0.27394918 0.032229315 -0.20949055 0.016114658 0.0 0.016114658 0.16114658 -0.32229316

recog/birnn/bidirectional_rnn/bw/rnn3/cell_to_forget_w i1 [164, 164] scale=0.014907173 zero_point=0
000000 fe e4 d4 f9 13 c7 fa 0b 21 06 0f d0 f9 f7 f1 f5
       -0.029814346 -0.41740084 -0.6559156 -0.10435021 0.2832363 -0.84970886 -0.089443035 0.1639789 0.4919367 0.089443035 0.2236076 -0.7155443 -0.10435021 -0.13416456 -0.2236076 -0.1639789
000010 0c ff f1 1f f9 25 0b ef ff f4 d7 1b 0f 0f 18 0d
       0.17888607 -0.014907173 -0.2236076 0.46212235 -0.10435021 0.5515654 0.1639789 -0.25342193 -0.014907173 -0.17888607 -0.6111941 0.40249366 0.2236076 0.2236076 0.35777214 0.19379325
000020 ef 04 08 d4 05 09 18 12 0e 0a 03 15 33 f2 06 07
       -0.25342193 0.05962869 0.11925738 -0.6559156 0.07453586 0.13416456 0.35777214 0.2683291 0.20870042 0.14907172 0.044721518 0.31305063 0.7602658 -0.20870042 0.089443035 0.10435021
000030 0d 00 ee e8 ed 26 07 fe fe e4 10 0c ea 0c 1e 4f
       0.19379325 0.0 -0.2683291 -0.35777214 -0.2832363 0.5664726 0.10435021 -0.029814346 -0.029814346 -0.41740084 0.23851477 0.17888607 -0.3279578 0.17888607 0.4472152 1.1776667
000040 f6 37 ea d2 07 1a e7 15 26 08 fb f1 f1 2a f5 e1
       -0.14907172 0.8198945 -0.3279578 -0.68573 0.10435021 0.3875865 -0.37267932 0.31305063 0.5664726 0.11925738 -0.07453586 -0.2236076 -0.2236076 0.62610126 -0.1639789 -0.46212235
000050 e4 f6 fc 1f e6 2c dc 28 f2 1c 08 13 d9 0f 1f 15
       -0.41740084 -0.14907172 -0.05962869 0.46212235 -0.3875865 0.6559156 -0.5366582 0.5962869 -0.20870042 0.41740084 0.11925738 0.2832363 -0.5813798 0.2236076 0.46212235 0.31305063
000060 17 e2 00 d6 e0 16 f1 0d 41 15 0d 08 fb 1b fb f6
       0.342865 -0.4472152 0.0 -0.62610126 -0.47702953 0.3279578 -0.2236076 0.19379325 0.96896625 0.31305063 0.19379325 0.11925738 -0.07453586 0.40249366 -0.07453586 -0.14907172
000070 20 c1 04 09 05 ec fa fd fd fd f2 1c 0f 14 1e 0e
       0.47702953 -0.9391519 0.05962869 0.13416456 0.07453586 -0.29814345 -0.089443035 -0.044721518 -0.044721518 -0.044721518 -0.20870042 0.41740084 0.2236076 0.29814345 0.4472152 0.20870042
000080 0c f7 06 03 07 0a e7 ec 2a f8 0e fa 27 f0 00 fd
       0.17888607 -0.13416456 0.089443035 0.044721518 0.10435021 0.14907172 -0.37267932 -0.29814345 0.62610126 -0.11925738 0.20870042 -0.089443035 0.5813798 -0.23851477 0.0 -0.044721518
000090 e0 fa f1 09 f5 13 f7 11 e6 fc e6 08 03 e9 04 e6
       -0.47702953 -0.089443035 -0.2236076 0.13416456 -0.1639789 0.2832363 -0.13416456 0.25342193 -0.3875865 -0.05962869 -0.3875865 0.11925738 0.044721518 -0.342865 0.05962869 -0.3875865
0000a0 e7 02 40 1a 0f 10 e9 e8 ea dc c9 09 08 13 16 f6
       -0.37267932 0.029814346 0.95405906 0.3875865 0.2236076 0.23851477 -0.342865 -0.35777214 -0.3279578 -0.5366582 -0.8198945 0.13416456 0.11925738 0.2832363 0.3279578 -0.14907172
0000b0 eb 07 fd f1 e8 03 00 f2 ee ec f9 1f f8 fa ef 14
       -0.31305063 0.10435021 -0.044721518 -0.2236076 -0.35777214 0.044721518 0.0 -0.20870042 -0.2683291 -0.29814345 -0.10435021 0.46212235 -0.11925738 -0.089443035 -0.25342193 0.29814345
0000c0 08 e1 23 f7 11 06 13 e3 f9 ec ed eb fe da 07 04
       0.11925738 -0.46212235 0.52175105 -0.13416456 0.25342193 0.089443035 0.2832363 -0.43230802 -0.10435021 -0.29814345 -0.2832363 -0.31305063 -0.029814346 -0.5664726 0.10435021 0.05962869
0000d0 27 0e 03 02 fc df e5 0b f6 06 e5 fd 18 33 f2 f4
       0.5813798 0.20870042 0.044721518 0.029814346 -0.05962869 -0.4919367 -0.40249366 0.1639789 -0.14907172 0.089443035 -0.40249366 -0.044721518 0.35777214 0.7602658 -0.20870042 -0.17888607
0000e0 ec f8 0c 3e f7 36 06 f5 e6 0c bd d4 23 f1 e9 16
       -0.29814345 -0.11925738 0.17888607 0.9242447 -0.13416456 0.8049873 0.089443035 -0.1639789 -0.3875865 0.17888607 -0.9987806 -0.6559156 0.52175105 -0.2236076 -0.342865 0.3279578
0000f0 02 17 0f 12 fb 01 ef 1c f1 02 f7 f9 ea 0f 04 fe
       0.029814346 0.342865 0.2236076 0.2683291 -0.07453586 0.014907173 -0.25342193 0.41740084 -0.2236076 0.029814346 -0.13416456 -0.10435021 -0.3279578 0.2236076 0.05962869 -0.029814346

recog/birnn/bidirectional_rnn/bw/rnn3/cell_to_input_w i1 [164, 164] scale=0.013317348 zero_point=0
000000 f0 05 11 fe 12 56 f0 f3 f3 eb ea e7 10 05 01 04
       -0.21307757 0.06658674 0.22639492 -0.026634697 0.23971227 1.1452919 -0.21307757 -0.17312554 -0.17312554 -0.2796643 -0.29298165 -0.33293372 0.21307757 0.06658674 0.013317348 0.053269394
000010 e7 0a ee 05 13 07 0a dc 18 ff ef 13 02 f1 fc f1
       -0.33293372 0.13317348 -0.23971227 0.06658674 0.2530296 0.09322144 0.13317348 -0.47942454 0.31961638 -0.013317348 -0.22639492 0.2530296 0.026634697 -0.19976023 -0.053269394 -0.19976023
000020 29 fb f8 0c 0d e3 f0 ff f6 f3 f6 0e e4 08 f4 03
       0.54601127 -0.06658674 -0.10653879 0.15980819 0.17312554 -0.3862031 -0.21307757 -0.013317348 -0.13317348 -0.17312554 -0.13317348 0.18644288 -0.37288576 0.10653879 -0.15980819 0.039952047
000030 fe f3 01 03 f2 fe f4 11 f6 00 0a 01 0f ee 0f f8
       -0.026634697 -0.17312554 0.013317348 0.039952047 -0.18644288 -0.026634697 -0.15980819 0.22639492 -0.13317348 0.0 0.13317348 0.013317348 0.19976023 -0.23971227 0.19976023 -0.10653879
000040 00 00 e5 09 fc ff 21 19 0e 0d 01 09 f6 26 27 f9
       0.0 0.0 -0.35956842 0.119856134 -0.053269394 -0.013317348 0.4394725 0.33293372 0.18644288 0.17312554 0.013317348 0.119856134 -0.13317348 0.5060592 0.5193766 -0.09322144
000050 fa fd 13 e1 f9 e3 1c eb 12 ef fb fb e8 4a 1e e8
       -0.079904094 -0.039952047 0.2530296 -0.4128378 -0.09322144 -0.3862031 0.37288576 -0.2796643 0.23971227 -0.22639492 -0.06658674 -0.06658674 -0.31961638 0.98548377 0.39952046 -0.31961638
000060 fd 0f 11 0d 0d 0c 11 0f e6 16 03 0f 19 fa 18 23
       -0.039952047 0.19976023 0.22639492 0.17312554 0.17312554 0.15980819 0.22639492 0.19976023 -0.34625107 0.29298165 0.039952047 0.19976023 0.33293372 -0.079904094 0.31961638 0.4661072
000070 01 f9 12 f3 0e 0c 09 ff fa 01 15 e6 e2 05 e3 1b
       0.013317348 -0.09322144 0.23971227 -0.17312554 0.18644288 0.15980819 0.119856134 -0.013317348 -0.079904094 0.013317348 0.2796643 -0.34625107 -0.39952046 0.06658674 -0.3862031 0.35956842
000080 21 04 f3 fa 09 f5 28 00 ef e7 ed 1c f3 fe 12 05
       0.4394725 0.053269394 -0.17312554 -0.079904094 0.119856134 -0.14649083 0.5326939 0.0 -0.22639492 -0.33293372 -0.2530296 0.37288576 -0.17312554 -0.026634697 0.23971227 0.06658674
000090 04 31 15 f0 db ed 22 02 e2 15 18 fe fb 17 fe 14
       0.053269394 0.6525501 0.2796643 -0.21307757 -0.49274188 -0.2530296 0.45278984 0.026634697 -0.39952046 0.2796643 0.31961638 -0.026634697 -0.06658674 0.306299 -0.026634697 0.26634696
0000a0 ea fd cf 0a ff 0a ea f7 0c 28 08 f7 df 00 e7 04
       -0.29298165 -0.039952047 -0.6525501 0.13317348 -0.013317348 0.13317348 -0.29298165 -0.119856134 0.15980819 0.5326939 0.10653879 -0.119856134 -0.4394725 0.0 -0.33293372 0.053269394
0000b0 fc 26 f8 01 e9 0a c9 0b 0f 04 f7 f0 fb fe 04 f0
       -0.053269394 0.5060592 -0.10653879 0.013317348 -0.306299 0.13317348 -0.7324542 0.14649083 0.19976023 0.053269394 -0.119856134 -0.21307757 -0.06658674 -0.026634697 0.053269394 -0.21307757
0000c0 06 f0 0a 18 04 ef 09 0e 25 17 e7 0b 04 e2 f7 f8
       0.079904094 -0.21307757 0.13317348 0.31961638 0.053269394 -0.22639492 0.119856134 0.18644288 0.49274188 0.306299 -0.33293372 0.14649083 0.053269394 -0.39952046 -0.119856134 -0.10653879
0000d0 ef 12 ff fa 01 03 fc 0e 06 fd ff ea 0f 0a ef f2
       -0.22639492 0.23971227 -0.013317348 -0.079904094 0.013317348 0.039952047 -0.053269394 0.18644288 0.079904094 -0.039952047 -0.013317348 -0.29298165 0.19976023 0.13317348 -0.22639492 -0.18644288
0000e0 04 ec fd 04 f0 1f 05 0e e3 fc 04 07 df fe 0d fa
       0.053269394 -0.26634696 -0.039952047 0.053269394 -0.21307757 0.4128378 0.06658674 0.18644288 -0.3862031 -0.053269394 0.053269394 0.09322144 -0.4394725 -0.026634697 0.17312554 -0.079904094
0000f0 e7 03 fe 23 08 ff fb 0e f2 f1 d5 cf f5 03 1a ed
       -0.33293372 0.039952047 -0.026634697 0.4661072 0.10653879 -0.013317348 -0.06658674 0.18644288 -0.18644288 -0.19976023 -0.57264596 -0.6525501 -0.14649083 0.039952047 0.34625107 -0.2530296

recog/birnn/bidirectional_rnn/bw/rnn3/cell_to_output_w i1 [164, 164] scale=0.023649303 zero_point=0
000000 f2 fb fa 08 fd ff 0a fb 1c 09 0f 01 02 eb 08 fc
       -0.33109024 -0.11824652 -0.14189582 0.18919443 -0.07094791 -0.023649303 0.23649304 -0.11824652 0.6621805 0.21284373 0.35473955 0.023649303 0.047298606 -0.49663538 0.18919443 -0.09459721
000010 09 03 02 0a 08 05 0b f1 0c 17 01 fe e2 f7 00 12
       0.21284373 0.07094791 0.047298606 0.23649304 0.18919443 0.11824652 0.26014233 -0.35473955 0.28379163 0.543934 0.023649303 -0.047298606 -0.7094791 -0.21284373 0.0 0.42568746
000020 0a f4 00 04 e8 fe fc f4 f1 04 09 e9 f8 fa f5 ff
       0.23649304 -0.28379163 0.0 0.09459721 -0.56758326 -0.047298606 -0.09459721 -0.28379163 -0.35473955 0.09459721 0.21284373 -0.543934 -0.18919443 -0.14189582 -0.26014233 -0.023649303
000030 07 07 05 ff f5 07 f2 f1 f3 f2 fc 11 fd 09 f9 04
       0.16554512 0.16554512 0.11824652 -0.023649303 -0.26014233 0.16554512 -0.33109024 -0.35473955 -0.30744094 -0.33109024 -0.09459721 0.40203816 -0.07094791 0.21284373 -0.16554512 0.09459721
000040 10 08 fb fe f5 e6 23 0b 04 f6 fe f8 f6 f3 eb f3
       0.37838885 0.18919443 -0.11824652 -0.047298606 -0.26014233 -0.6148819 0.8277256 0.26014233 0.09459721 -0.23649304 -0.047298606 -0.18919443 -0.23649304 -0.30744094 -0.49663538 -0.30744094
000050 03 fe 17 f5 07 02 05 01 f4 e6 01 0d f4 1b 05 e7
       0.07094791 -0.047298606 0.543934 -0.26014233 0.16554512 0.047298606 0.11824652 0.023649303 -0.28379163 -0.6148819 0.023649303 0.30744094 -0.28379163 0.6385312 0.11824652 -0.5912326
000060 f1 f3 0a ee f1 f4 ed fc f3 fe eb ff ee fb 01 01
       -0.35473955 -0.30744094 0.23649304 -0.42568746 -0.35473955 -0.28379163 -0.44933677 -0.09459721 -0.30744094 -0.047298606 -0.49663538 -0.023649303 -0.42568746 -0.11824652 0.023649303 0.023649303
000070 f3 02 e8 1e 06 00 07 09 0b 10 fd f4 06 ef fb 0b
       -0.30744094 0.047298606 -0.56758326 0.7094791 0.14189582 0.0 0.16554512 0.21284373 0.26014233 0.37838885 -0.07094791 -0.28379163 0.14189582 -0.40203816 -0.11824652 0.26014233
000080 16 08 09 f8 16 fa 01 01 15 00 e3 ff fe 01 f2 f8
       0.52028465 0.18919443 0.21284373 -0.18919443 0.52028465 -0.14189582 0.023649303 0.023649303 0.49663538 0.0 -0.6858298 -0.023649303 -0.047298606 0.023649303 -0.33109024 -0.18919443
000090 06 f3 0f e8 f6 ef 04 07 0b fa 00 ed 04 f4 0f ed
       0.14189582 -0.30744094 0.35473955 -0.56758326 -0.23649304 -0.40203816 0.09459721 0.16554512 0.26014233 -0.14189582 0.0 -0.44933677 0.09459721 -0.28379163 0.35473955 -0.44933677
0000a0 0a f4 04 fd 09 e8 f7 06 e9 18 f9 ee 10 07 01 09
       0.23649304 -0.28379163 0.09459721 -0.07094791 0.21284373 -0.56758326 -0.21284373 0.14189582 -0.543934 0.56758326 -0.16554512 -0.42568746 0.37838885 0.16554512 0.023649303 0.21284373
0000b0 02 f8 18 1f fe e1 06 fb f6 08 00 f7 04 f4 ff 16
       0.047298606 -0.18919443 0.56758326 0.7331284 -0.047298606 -0.7331284 0.14189582 -0.11824652 -0.23649304 0.18919443 0.0 -0.21284373 0.09459721 -0.28379163 -0.023649303 0.52028465
0000c0 fa fb f6 18 e8 f1 f7 f1 e2 08 01 f7 0a e7 05 01
       -0.14189582 -0.11824652 -0.23649304 0.56758326 -0.56758326 -0.35473955 -0.21284373 -0.35473955 -0.7094791 0.18919443 0.023649303 -0.21284373 0.23649304 -0.5912326 0.11824652 0.023649303
0000d0 ee 00 fc ef 00 e9 03 14 f0 0a e3 ee 11 06 07 02
       -0.42568746 0.0 -0.09459721 -0.40203816 0.0 -0.543934 0.07094791 0.47298607 -0.37838885 0.23649304 -0.6858298 -0.42568746 0.40203816 0.14189582 0.16554512 0.047298606
0000e0 0f fd dc 05 07 06 f7 0d fe f0 e3 00 07 20 00 f1
       0.35473955 -0.07094791 -0.8513749 0.11824652 0.16554512 0.14189582 -0.21284373 0.30744094 -0.047298606 -0.37838885 -0.6858298 0.0 0.16554512 0.7567777 0.0 -0.35473955
0000f0 f5 09 f8 ff 03 0d 02 0a 1c ef 06 ee fe 20 f4 ec
       -0.26014233 0.21284373 -0.18919443 -0.023649303 0.07094791 0.30744094 0.047298606 0.23649304 0.6621805 -0.40203816 0.14189582 -0.42568746 -0.047298606 0.7567777 -0.28379163 -0.47298607

recog/birnn/bidirectional_rnn/bw/rnn3/forget_bias f4 [164]
000000 62 ba 58 3f e8 aa 64 3f 49 b3 ee 3f 64 be 92 3f
       0.846594 0.8932328 1.8648463 1.1464353
000010 13 c5 62 3f fc ab 76 3f 54 e9 33 3f e7 09 87 3f
       0.8858196 0.9635618 0.70277905 1.0549897
000020 f0 ef 54 3f fd da 47 3f 07 e4 75 3f 90 f3 45 3f
       0.83178616 0.78068525 0.9605107 0.7732477
000030 79 1b 78 3f 67 6c 7f 3f 20 89 60 3f 45 82 81 3f
       0.9691692 0.99774784 0.87709236 1.011788
000040 0c d5 64 3f ba ed dd 3f 57 61 94 3f 47 59 40 3f
       0.89387584 1.7338173 1.1592206 0.75136226
000050 6f 25 77 3f 2d 9d 71 3f 3f 22 63 3f 87 3f 7c 3f
       0.96541494 0.94380456 0.8872413 0.98534435
000060 ea 89 7b 3f 73 d4 61 3f 5f 1f 7d 3f 7d 7b 94 3f
       0.98257315 0.88214797 0.98875993 1.1600186
000070 0d 54 47 3f 88 6a 7c 3f 97 37 94 3f b7 ee 60 3f
       0.77862626 0.98600054 1.1579465 0.8786425
000080 0f 62 80 3f 58 6e 84 3f c9 3e 70 3f 3d 70 5e 3f
       1.0029925 1.0346174 0.938458 0.8689001
000090 5d ba 90 3f c4 65 87 3f ae 63 91 3f be 9d 90 3f
       1.1306874 1.0577931 1.1358545 1.1298139
0000a0 88 77 82 3f ae 01 69 3f fb a8 54 3f c1 57 68 3f
       1.0192728 0.9101819 0.83070344 0.907589
0000b0 ba 01 52 3f 51 f6 80 3f ee ee 71 3f cb 85 9f 3f
       0.82033885 1.007517 0.945052 1.2462705
0000c0 23 09 81 3f 7d d0 48 3f 78 24 78 3f d7 50 3f 3f
       1.0080913 0.7844313 0.96930647 0.74732727
0000d0 90 a9 70 3f 2d 9f 70 3f 93 c8 48 3f 07 de 65 3f
       0.9400873 0.9399288 0.7843105 0.8979191
0000e0 bb b7 de 3f 9a 84 3f 3f e2 9c 63 3f f5 af 92 3f
       1.739982 0.7481171 0.8891126 1.1459948
0000f0 8e b5 68 3f 32 62 5a 3f a2 20 60 3f df d0 6b 3f
       0.9090203 0.85306084 0.87549794 0.92115587
000100 14 9d 52 3f 06 8c a7 3f e9 77 5d 3f a6 92 2c 3f
       0.8227093 1.3089607 0.86511093 0.6741127
000110 27 d4 85 3f c7 6c 87 3f 7a bc 82 3f db 62 43 3f
       1.0455369 1.0580071 1.0213768 0.76322716
000120 a6 62 5d 3f 90 2c 60 3f 0b 17 79 3f 3c 9b 7a 3f
       0.8647865 0.87567997 0.97300786 0.9789312
000130 c0 2c 97 3f 3d df 6d 3f 08 5f 79 3f c7 ff 65 3f
       1.1810532 0.9291876 0.9741063 0.8984341
000140 11 39 42 3f ee 3c 87 3f de 62 6b 3f b5 b1 8e 3f
       0.75868326 1.0565469 0.91947734 1.1147982
000150 81 f5 56 3f d9 0d 60 3f f8 81 6e 3f e8 de 64 3f
       0.8396836 0.8752113 0.93167067 0.8940263
000160 e1 be 31 3f e4 87 57 3f c3 ce 62 3f 2a d7 62 3f
       0.69431883 0.8419173 0.88596743 0.88609564
000170 a6 9a 6e 3f 33 97 86 3f 94 4c 7a 3f bd f2 7d 3f
       0.93204725 1.0514892 0.977731 0.99198514
000180 71 79 81 3f ac de 87 3f 1c 43 5d 3f f1 e9 65 3f
       1.0115186 1.0614829 0.86430526 0.8981009
000190 f8 21 66 3f e5 c7 56 3f 41 7c 8e 3f 9f aa 89 3f
       0.8989558 0.83898765 1.1131669 1.0755194
0001a0 1a 65 6d 3f 49 71 4b 3f fb 7a 50 3f 3a 48 66 3f
       0.92732394 0.79469734 0.81437653 0.8995396
0001b0 09 b9 83 3f be e9 7c 3f 16 af 5e 3f 48 c2 80 3f
       1.0290843 0.9879416 0.8698591 1.005929
0001c0 1d 79 75 3f 5b 7f 6a 3f cc d7 7e 3f 5a c1 62 3f
       0.9588793 0.9160058 0.9954803 0.8857628
0001d0 e2 94 58 3f 2b 84 68 3f c6 07 5d 3f 32 28 8c 3f
       0.8460218 0.9082667 0.86339986 1.0949767
0001e0 a1 de 55 3f 38 b1 50 3f 66 2a 7f 3f 6e 81 86 3f
       0.8354283 0.81520414 0.9967407 1.0508249
0001f0 24 3c 51 3f e0 51 85 3f da b0 71 3f 29 b2 89 3f
       0.8173239 1.0415611 0.9441048 1.0757495
000200 b0 a1 85 3f df 3c 65 3f 4c e2 8f 3f bd af 80 3f
       1.0439968 0.89546007 1.1240935 1.0053631
000210 f2 95 50 3f 13 b9 4a 3f 8a 93 77 3f 45 30 ea 3f
       0.814788 0.7918865 0.967095 1.8295981
000220 a1 43 7a 3f 38 b1 8c 3f dd 75 4b 3f 4c 56 64 3f
       0.97759444 1.0991583 0.7947672 0.8919418
000230 5d 2f 3f 3f 29 b7 cd 3f c9 c2 53 3f ef ce 8d 3f
       0.74681646 1.6071521 0.82719094 1.1078776
000240 eb 15 4d 3f 13 9d 87 3f d3 41 7b 3f d9 df 7d 3f
       0.8011157 1.059481 0.98147315 0.9916969
000250 69 9d 6c 3f 83 6e 82 3f 0f 6d 79 3f 27 7d 71 3f
       0.9242769 1.0189976 0.97432035 0.9433159
000260 a8 b1 66 3f bc 43 4b 3f 32 6e 46 3f f5 cd 44 3f
       0.9011483 0.7940023 0.77511895 0.76876765
000270 27 d6 62 3f 78 d2 23 3f 6c fb 89 3f 02 bd 34 3f
       0.8860802 0.63993025 1.0779853 0.70600903
000280 e5 8a 6c 3f 33 cf 69 3f 19 7c 29 3f 94 e9 83 3f
       0.92399436 0.91331786 0.66204983 1.0305657

recog/birnn/bidirectional_rnn/bw/rnn3/input_bias f4 [164]
000000 a1 a5 c6 bd 2b c7 39 be ae 7e cb 3d 14 0e d7 3c
       -0.0969956 -0.18142383 0.099362716 0.02625183
000010 4e d2 6c be 7b 56 43 be 60 92 25 bd 75 c5 a3 bd
       -0.231271 -0.19075958 -0.040422797 -0.07996646
000020 8f 19 98 bc b6 df 1c be 45 3d 32 be 93 35 65 be
       -0.018566875 -0.15319714 -0.17406185 -0.22383718
000030 af da 9f be 29 81 1d be 77 67 47 be 82 74 99 be
       -0.3122153 -0.15381302 -0.19473062 -0.299717
000040 39 8c 8b bd 20 69 54 be 04 55 31 3d a8 7b 6f be
       -0.06813855 -0.20743227 0.043293968 -0.23387015
000050 88 5b 83 bd 08 24 e2 ba a0 9a 8a be 25 ab 86 be
       -0.064139426 -0.001725317 -0.27071095 -0.26302448
000060 6c a3 10 bc af 95 c4 39 db 5a 1b be 8d b4 d2 be
       -0.008828025 0.00037495556 -0.15171377 -0.41153374
000070 60 a4 ee bd 0d e5 1f 3e 9c 5b 98 be 20 a4 28 bd
       -0.11652446 0.1561472 -0.29757392 -0.041172147
000080 55 11 45 be 65 fb 41 bc f1 f8 f1 bb 7f 5f 3b be
       -0.19244893 -0.011839722 -0.0073844125 -0.18298148
000090 53 a3 03 3e 9c b9 b7 be 68 d4 78 3e 83 2a 05 be
       0.12855272 -0.35883796 0.24299777 -0.13004498
0000a0 53 08 85 bd 8e a9 36 be 91 aa 46 be 00 70 81 be
       -0.06495728 -0.17838117 -0.19401003 -0.25280762
0000b0 b5 8f b1 bd ec d7 b2 bd b6 31 6a be c1 69 22 bd
       -0.08669988 -0.0873259 -0.22870526 -0.039651636
0000c0 90 4c 3c be f7 aa ea bd 9e d6 82 be 2d 4d 5a be
       -0.18388581 -0.1145839 -0.25554365 -0.21318503
0000d0 e8 7c 07 be b2 46 96 bd af 29 ad be 45 84 a3 bd
       -0.13231242 -0.07337703 -0.33820865 -0.07984213
0000e0 2d fa 61 be 12 b4 e8 bd d7 11 84 bd ff 05 00 be
       -0.2206809 -0.11362471 -0.06448715 -0.12502287
0000f0 50 f7 8d be 8c 42 c7 bd be c2 92 bc 22 9a c9 bc
       -0.27727747 -0.0972949 -0.017915126 -0.024609629
000100 1d 80 fe bd 06 84 b0 be 92 c8 03 be c5 b2 2d bd
       -0.124267794 -0.34475726 -0.1286948 -0.042406816
000110 f6 5c 82 3e 46 ad e5 be 0b 20 e3 be 7d 55 97 bd
       0.2546155 -0.4485876 -0.44360384 -0.073893525
000120 7f 7e 53 3c 50 81 bd be 4d 12 fd 3b 75 d5 8f bd
       0.012908577 -0.3701272 0.007723129 -0.070231356
000130 fb 1f 9a be 3d 0d c1 be fb cf 25 be bb 0a 62 be
       -0.30102524 -0.37705413 -0.1619262 -0.22074406
000140 db 74 9d be 48 a1 84 3d 41 a1 07 be 75 cb 71 be
       -0.30753216 0.064760745 -0.13245107 -0.23612769
000150 5c cd d7 bd 84 39 49 be c8 80 dc be d4 6f 81 be
       -0.10537216 -0.19650847 -0.43067002 -0.2528063
000160 dc 4f 0c be 55 07 2d bd cb 6e e1 bd 65 f9 99 be
       -0.13702339 -0.04224332 -0.1100746 -0.30073085
000170 01 4d 38 bd fe 09 a2 be 24 44 2d 3d 7c 7b 3f be
       -0.04499531 -0.31648248 0.042301312 -0.1869945
000180 ae b2 b1 be ea c2 07 bf 8d 21 44 be 5b 0a ed bc
       -0.34706634 -0.5303179 -0.19153424 -0.028935602
000190 64 9e 6c be b5 4c e4 bc 20 4a e4 bd 7c 54 82 bd
       -0.23107296 -0.027868608 -0.11146951 -0.0636377
0001a0 03 a0 7c bd 95 8f ff bc cf d9 ac bd 74 e4 97 be
       -0.061676037 -0.031196395 -0.08439981 -0.29666483
0001b0 b1 14 c8 be 54 82 a8 bd 20 78 ef be 18 7b 4d be
       -0.39078286 -0.08227983 -0.46771336 -0.20066488
0001c0 7b df 25 be 3c 91 4a be 6f a4 29 3d 16 31 32 be
       -0.16198532 -0.19781965 0.04141658 -0.17401537
0001d0 31 08 6a be b3 6c ba bd 2e 4f 10 bc 87 5f 2a 3d
       -0.22854687 -0.09102764 -0.00880794 0.04159501
0001e0 db 57 3b be bc d9 51 bd 9e 86 47 be 48 95 47 3e
       -0.18295233 -0.05123304 -0.19484946 0.1949054
0001f0 36 1e 14 bd 92 4b 15 be 4e 54 c9 be 78 9f f7 bd
       -0.036161624 -0.14579609 -0.39322132 -0.12090963
000200 d7 4f f0 39 34 8a da bd 0b b9 ac be 77 8f 0b be
       0.00045835853 -0.106708914 -0.33734927 -0.13628946
000210 74 ce f3 bd 05 34 35 be a4 5e 8c be 77 8e 1a bd
       -0.11904612 -0.17695625 -0.27415955 -0.03773352
000220 1d b1 fa 3c 3d cb 44 be 86 6c 74 be 44 f8 f9 bd
       0.030602032 -0.19218154 -0.23869523 -0.12205556
000230 4a 70 9a 3d 3c 14 01 3e df 2d 6f be 01 05 c9 bc
       0.07540949 0.12605375 -0.23357342 -0.024538519
000240 b8 59 98 be 0f 89 7c be 0c 68 2d be 54 06 25 be
       -0.2975595 -0.24661659 -0.16934222 -0.16115695
000250 19 ef 25 be ee 24 58 be 6c fc 8f be 44 dc 4f be
       -0.1620449 -0.21107838 -0.2812227 -0.20298868
000260 b7 33 88 bd 68 15 a4 be bc e8 33 bd 55 99 cb bd
       -0.06650489 -0.32047582 -0.043923125 -0.09941355
000270 70 9f 26 be 82 85 88 be 08 50 a0 be 03 0a b0 bc
       -0.16271758 -0.26664358 -0.3131106 -0.021489149
000280 54 4d 4d be 5a a7 85 be 7b 8f 2f bd ea 56 1d be
       -0.2004903 -0.26104242 -0.042861443 -0.15365186

recog/birnn/bidirectional_rnn/bw/rnn3/input_to_cell_w i1 [164, 164] scale=0.013379409 zero_point=0
000000 06 f9 03 0b 0e 09 0c 18 fb 17 f0 f0 e2 f4 f3 ef
       0.08027645 -0.09365586 0.040138226 0.1471735 0.18731172 0.12041468 0.1605529 0.3211058 -0.06689704 0.3077264 -0.21407054 -0.21407054 -0.40138227 -0.1605529 -0.17393231 -0.22744995
000010 05 fb 05 0c 03 0a fa f4 ff 0b 12 08 1f 04 00 ef
       0.06689704 -0.06689704 0.06689704 0.1605529 0.040138226 0.13379408 -0.08027645 -0.1605529 -0.013379409 0.1471735 0.24082936 0.10703527 0.4147617 0.053517636 0.0 -0.22744995
000020 e7 09 09 02 02 fa 03 f2 f7 f9 f9 0d 08 07 fc 05
       -0.33448523 0.12041468 0.12041468 0.026758818 0.026758818 -0.08027645 0.040138226 -0.18731172 -0.12041468 -0.09365586 -0.09365586 0.17393231 0.10703527 0.09365586 -0.053517636 0.06689704
000030 ff 0e 04 0f ff f8 f6 ee 02 03 fd 0d 05 07 ff 0b
       -0.013379409 0.18731172 0.053517636 0.20069113 -0.013379409 -0.10703527 -0.13379408 -0.24082936 0.026758818 0.040138226 -0.040138226 0.17393231 0.06689704 0.09365586 -0.013379409 0.1471735
000040 08 01 fb f4 fd 01 00 f1 f5 0d f8 04 ea f0 0e f2
       0.10703527 0.013379409 -0.06689704 -0.1605529 -0.040138226 0.013379409 0.0 -0.20069113 -0.1471735 0.17393231 -0.10703527 0.053517636 -0.294347 -0.21407054 0.18731172 -0.18731172
000050 f0 0a fd f5 fb 15 fd 05 f8 ff 0d f5 08 ff fe 05
       -0.21407054 0.13379408 -0.040138226 -0.1471735 -0.06689704 0.2809676 -0.040138226 0.06689704 -0.10703527 -0.013379409 0.17393231 -0.1471735 0.10703527 -0.013379409 -0.026758818 0.06689704
000060 f6 f4 fc e7 0c 08 fc fb 0d 09 01 f8 08 fd df fe
       -0.13379408 -0.1605529 -0.053517636 -0.33448523 0.1605529 0.10703527 -0.053517636 -0.06689704 0.17393231 0.12041468 0.013379409 -0.10703527 0.10703527 -0.040138226 -0.44152048 -0.026758818
000070 f9 d7 07 fe 09 09 f3 0a fb 09 f6 06 fb 0f fc 04
       -0.09365586 -0.5485558 0.09365586 -0.026758818 0.12041468 0.12041468 -0.17393231 0.13379408 -0.06689704 0.12041468 -0.13379408 0.08027645 -0.06689704 0.20069113 -0.053517636 0.053517636
000080 0b ff 05 0f f7 03 f9 f4 02 fb 00 05 fc 01 fd f3
       0.1471735 -0.013379409 0.06689704 0.20069113 -0.12041468 0.040138226 -0.09365586 -0.1605529 0.026758818 -0.06689704 0.0 0.06689704 -0.053517636 0.013379409 -0.040138226 -0.17393231
000090 06 fc 09 00 f1 fb ed f6 05 ff 0b 0f fa f0 ff fe
       0.08027645 -0.053517636 0.12041468 0.0 -0.20069113 -0.06689704 -0.25420877 -0.13379408 0.06689704 -0.013379409 0.1471735 0.20069113 -0.08027645 -0.21407054 -0.013379409 -0.026758818
0000a0 02 fd 07 fb 08 00 05 fe 06 ef 04 f8 ef 09 f7 fe
       0.026758818 -0.040138226 0.09365586 -0.06689704 0.10703527 0.0 0.06689704 -0.026758818 0.08027645 -0.22744995 0.053517636 -0.10703527 -0.22744995 0.12041468 -0.12041468 -0.026758818
0000b0 f7 f8 00 01 fb 0c f6 e9 0a 06 f8 0d 09 0a f7 ff
       -0.12041468 -0.10703527 0.0 0.013379409 -0.06689704 0.1605529 -0.13379408 -0.3077264 0.13379408 0.08027645 -0.10703527 0.17393231 0.12041468 0.13379408 -0.12041468 -0.013379409
0000c0 12 fd f1 f4 fe 08 ea 06 07 0b f3 f2 ff ff e4 0b
       0.24082936 -0.040138226 -0.20069113 -0.1605529 -0.026758818 0.10703527 -0.294347 0.08027645 0.09365586 0.1471735 -0.17393231 -0.18731172 -0.013379409 -0.013379409 -0.37462345 0.1471735
0000d0 fd f7 06 01 fd 13 fb f8 0c 08 f8 f9 04 f4 01 fb
       -0.040138226 -0.12041468 0.08027645 0.013379409 -0.040138226 0.25420877 -0.06689704 -0.10703527 0.1605529 0.10703527 -0.10703527 -0.09365586 0.053517636 -0.1605529 0.013379409 -0.06689704
0000e0 fc fe fb fd fe 04 0a 0e fe 29 f8 fd fd f2 f9 15
       -0.053517636 -0.026758818 -0.06689704 -0.040138226 -0.026758818 0.053517636 0.13379408 0.18731172 -0.026758818 0.5485558 -0.10703527 -0.040138226 -0.040138226 -0.18731172 -0.09365586 0.2809676
0000f0 07 ea 05 f3 04 f7 05 06 f6 f2 fc f4 fb 0c 06 ef
       0.09365586 -0.294347 0.06689704 -0.17393231 0.053517636 -0.12041468 0.06689704 0.08027645 -0.13379408 -0.18731172 -0.053517636 -0.1605529 -0.06689704 0.1605529 0.08027645 -0.22744995

recog/birnn/bidirectional_rnn/bw/rnn3/input_to_forget_w i1 [164, 164] scale=0.012835538 zero_point=0
000000 f5 08 1b 11 0c 25 f0 04 1b f7 e0 e9 01 fe 09 d3
       -0.14119092 0.102684304 0.34655952 0.21820414 0.15402645 0.4749149 -0.20536861 0.051342152 0.34655952 -0.115519844 -0.41073722 -0.29521737 0.012835538 -0.025671076 0.115519844 -0.5775992
000010 f3 06 03 0d f4 07 01 fb fe f2 00 fb fd e1 fc 0a
       -0.166862 0.077013224 0.038506612 0.166862 -0.15402645 0.089848764 0.012835538 -0.06417769 -0.025671076 -0.17969753 0.0 -0.06417769 -0.038506612 -0.39790168 -0.051342152 0.12835538
000020 f9 f3 e9 28 02 fd 01 f0 1c fc ff 01 0a d3 fa 10
       -0.089848764 -0.166862 -0.29521737 0.51342154 0.025671076 -0.038506612 0.012835538 -0.20536861 0.35939506 -0.051342152 -0.012835538 0.012835538 0.12835538 -0.5775992 -0.077013224 0.20536861
000030 01 0e f8 ec fa 00 fc 0e d9 f2 f4 0e fd fb 0e 0f
       0.012835538 0.17969753 -0.102684304 -0.25671077 -0.077013224 0.0 -0.051342152 0.17969753 -0.500586 -0.17969753 -0.15402645 0.17969753 -0.038506612 -0.06417769 0.17969753 0.19253308
000040 f7 08 ff 07 01 1e 17 13 fb 11 0b f8 fa 09 ee 03
       -0.115519844 0.102684304 -0.012835538 0.089848764 0.012835538 0.38506615 0.29521737 0.24387522 -0.06417769 0.21820414 0.14119092 -0.102684304 -0.077013224 0.115519844 -0.23103969 0.038506612
000050 0b f0 df 0c f0 21 00 03 0e 32 3e ef fe d4 10 10
       0.14119092 -0.20536861 -0.42357275 0.15402645 -0.20536861 0.42357275 0.0 0.038506612 0.17969753 0.6417769 0.79580337 -0.21820414 -0.025671076 -0.56476367 0.20536861 0.20536861
000060 ee e3 fe e0 01 ef c6 fe ed ed e5 02 ec 0c 18 0f
       -0.23103969 -0.3722306 -0.025671076 -0.41073722 0.012835538 -0.21820414 -0.7444612 -0.025671076 -0.24387522 -0.24387522 -0.34655952 0.025671076 -0.25671077 0.15402645 0.3080529 0.19253308
000070 02 10 fb f8 e6 fd 10 07 fa eb f7 fb f7 dc 0f e8
       0.025671076 0.20536861 -0.06417769 -0.102684304 -0.333724 -0.038506612 0.20536861 0.089848764 -0.077013224 -0.2695463 -0.115519844 -0.06417769 -0.115519844 -0.46207938 0.19253308 -0.3080529
000080 ff 1b 19 ef f4 02 16 fa ee 22 f3 1b 0a ef f8 2d
       -0.012835538 0.34655952 0.32088846 -0.21820414 -0.15402645 0.025671076 0.28238183 -0.077013224 -0.23103969 0.43640828 -0.166862 0.34655952 0.12835538 -0.21820414 -0.102684304 0.5775992
000090 0c 06 07 0e 22 f9 e3 ef f8 0f eb fd 0b f8 01 04
       0.15402645 0.077013224 0.089848764 0.17969753 0.43640828 -0.089848764 -0.3722306 -0.21820414 -0.102684304 0.19253308 -0.2695463 -0.038506612 0.14119092 -0.102684304 0.012835538 0.051342152
0000a0 eb 13 09 02 f2 03 fb f5 05 27 01 0a 28 fb fd 03
       -0.2695463 0.24387522 0.115519844 0.025671076 -0.17969753 0.038506612 -0.06417769 -0.14119092 0.06417769 0.500586 0.012835538 0.12835538 0.51342154 -0.06417769 -0.038506612 0.038506612
0000b0 df f9 08 e6 fd f3 f4 f5 09 fb ef 06 eb f6 19 fc
       -0.42357275 -0.089848764 0.102684304 -0.333724 -0.038506612 -0.166862 -0.15402645 -0.14119092 0.115519844 -0.06417769 -0.21820414 0.077013224 -0.2695463 -0.12835538 0.32088846 -0.051342152
0000c0 08 f8 f7 32 0d fd 14 0b 05 f5 17 f6 29 ea 15 fc
       0.102684304 -0.102684304 -0.115519844 0.6417769 0.166862 -0.038506612 0.25671077 0.14119092 0.06417769 -0.14119092 0.29521737 -0.12835538 0.52625704 -0.28238183 0.2695463 -0.051342152
0000d0 e2 0a ed 1c 09 f7 f8 fe 10 fa f4 08 fb ea 09 12
       -0.38506615 0.12835538 -0.24387522 0.35939506 0.115519844 -0.115519844 -0.102684304 -0.025671076 0.20536861 -0.077013224 -0.15402645 0.102684304 -0.06417769 -0.28238183 0.115519844 0.23103969
0000e0 f2 f8 2f 14 f9 07 f9 ea 09 e0 fd fe fa 0f f3 f9
       -0.17969753 -0.102684304 0.6032703 0.25671077 -0.089848764 0.089848764 -0.089848764 -0.28238183 0.115519844 -0.41073722 -0.038506612 -0.025671076 -0.077013224 0.19253308 -0.166862 -0.089848764
0000f0 07 fa e8 19 eb f1 fc e4 0c 10 05 fc 00 0b 2c 11
       0.089848764 -0.077013224 -0.3080529 0.32088846 -0.2695463 -0.19253308 -0.051342152 -0.35939506 0.15402645 0.20536861 0.06417769 -0.051342152 0.0 0.14119092 0.56476367 0.21820414

recog/birnn/bidirectional_rnn/bw/rnn3/input_to_input_w i1 [164, 164] scale=0.012010069 zero_point=0
000000 03 00 fc 08 f7 fa fb 1c ee 09 0d f8 09 f9 fe f1
       0.036030207 0.0 -0.048040275 0.09608055 -0.10809062 -0.07206041 -0.060050342 0.33628193 -0.21618123 0.10809062 0.1561309 -0.09608055 0.10809062 -0.08407048 -0.024020137 -0.18015103
000010 f1 09 06 02 eb f4 fb fd 03 ef fe fb 07 f4 08 ef
       -0.18015103 0.10809062 0.07206041 0.024020137 -0.25221145 -0.14412083 -0.060050342 -0.036030207 0.036030207 -0.20417117 -0.024020137 -0.060050342 0.08407048 -0.14412083 0.09608055 -0.20417117
000020 1b e4 08 f5 1f 06 00 f3 f9 09 f4 08 e6 ef f0 03
       0.32427186 -0.33628193 0.09608055 -0.13211076 0.37231213 0.07206041 0.0 -0.1561309 -0.08407048 0.10809062 -0.14412083 0.09608055 -0.3122618 -0.20417117 -0.1921611 0.036030207
000030 fe fb f8 08 08 06 02 0a 0f f9 f4 ea e8 f6 ff 06
       -0.024020137 -0.060050342 -0.09608055 0.09608055 0.09608055 0.07206041 0.024020137 0.120100684 0.18015103 -0.08407048 -0.14412083 -0.26422152 -0.28824165 -0.120100684 -0.012010069 0.07206041
000040 f7 00 fb f7 e8 f7 01 f7 10 ea e0 12 14 07 f5 f5
       -0.10809062 0.0 -0.060050342 -0.10809062 -0.28824165 -0.10809062 0.012010069 -0.10809062 0.1921611 -0.26422152 -0.3843222 0.21618123 0.24020137 0.08407048 -0.13211076 -0.13211076
000050 02 ef 04 01 db 26 fc 0d ee e0 c9 05 0f 0f 16 0d
       0.024020137 -0.20417117 0.048040275 0.012010069 -0.44437253 0.4563826 -0.048040275 0.1561309 -0.21618123 -0.3843222 -0.66055375 0.060050342 0.18015103 0.18015103 0.26422152 0.1561309
000060 fe 07 fd 0b 18 ee f3 f8 ed f8 11 03 fa fd 16 e9
       -0.024020137 0.08407048 -0.036030207 0.13211076 0.28824165 -0.21618123 -0.1561309 -0.09608055 -0.2281913 -0.09608055 0.20417117 0.036030207 -0.07206041 -0.036030207 0.26422152 -0.2762316
000070 e8 12 f8 04 11 15 0d 0f ee fe 03 e4 ed f4 0a 0b
       -0.28824165 0.21618123 -0.09608055 0.048040275 0.20417117 0.25221145 0.1561309 0.18015103 -0.21618123 -0.024020137 0.036030207 -0.33628193 -0.2281913 -0.14412083 0.120100684 0.13211076
000080 0d 26 01 0b 0a 05 ee 0d 1f f4 ec 2c fd f7 eb e6
       0.1561309 0.4563826 0.012010069 0.13211076 0.120100684 0.060050342 -0.21618123 0.1561309 0.37231213 -0.14412083 -0.24020137 0.52844304 -0.036030207 -0.10809062 -0.25221145 -0.3122618
000090 f4 01 f9 1b f6 f7 e9 ff 03 fb 04 07 fc f9 03 05
       -0.14412083 0.012010069 -0.08407048 0.32427186 -0.120100684 -0.10809062 -0.2762316 -0.012010069 0.036030207 -0.060050342 0.048040275 0.08407048 -0.048040275 -0.08407048 0.036030207 0.060050342
0000a0 fa ec 0d f9 fa fe f3 0d 17 27 03 10 ef 0a fb 0b
       -0.07206041 -0.24020137 0.1561309 -0.08407048 -0.07206041 -0.024020137 -0.1561309 0.1561309 0.2762316 0.46839267 0.036030207 0.1921611 -0.20417117 0.120100684 -0.060050342 0.13211076
0000b0 e9 f6 e7 12 00 f4 f2 e9 14 e0 0c f0 e2 ef ed fb
       -0.2762316 -0.120100684 -0.30025172 0.21618123 0.0 -0.14412083 -0.16814096 -0.2762316 0.24020137 -0.3843222 0.14412083 -0.1921611 -0.36030206 -0.20417117 -0.2281913 -0.060050342
0000c0 05 fc 09 ec 12 0f 08 f9 eb ff f5 0a ea 13 14 fd
       0.060050342 -0.048040275 0.10809062 -0.24020137 0.21618123 0.18015103 0.09608055 -0.08407048 -0.25221145 -0.012010069 -0.13211076 0.120100684 -0.26422152 0.2281913 0.24020137 -0.036030207
0000d0 12 19 17 14 fa 07 0a fd 21 03 fa 02 fe 01 05 fe
       0.21618123 0.30025172 0.2762316 0.24020137 -0.07206041 0.08407048 0.120100684 -0.036030207 0.39633226 0.036030207 -0.07206041 0.024020137 -0.024020137 0.012010069 0.060050342 -0.024020137
0000e0 e1 04 0c f8 00 fe ff ef eb 22 fe 0b fa 02 18 01
       -0.37231213 0.048040275 0.14412083 -0.09608055 0.0 -0.024020137 -0.012010069 -0.20417117 -0.25221145 0.40834233 -0.024020137 0.13211076 -0.07206041 0.024020137 0.28824165 0.012010069
0000f0 14 0b 12 11 05 f7 01 f9 fa 05 fe cb 14 fc f2 fd
       0.24020137 0.13211076 0.21618123 0.20417117 0.060050342 -0.10809062 0.012010069 -0.08407048 -0.07206041 0.060050342 -0.024020137 -0.6365336 0.24020137 -0.048040275 -0.16814096 -0.036030207
