system/system/saiv/textrecognition/stride/mSTR_Korean_CNN.tflite (tflite, 622560 bytes, 11 tensors)

recog/cnn/GSE_B_2_fully_connected1/bias i1 [9] scale=0.0017566509 zero_point=0
-0.04040297 0.115938954 0.22309466 0.21782471 0.22309466 0.072022684 -0.04040297 0.17566508
-0.01756651
00000000: e942 7f7c 7f29 e964 f6

recog/cnn/GSE_A_1/GSE_A_1_fully_connected1/GSE_A_1_fully_connected1/Tensordot/MatMul i1 [6, 96] scale=0.011070904 zero_point=0
0.088567235 0.06642543 -0.15499265 0.18820538 0.19927628 0.11070904 -0.19927628 0.12177995
-0.13285086 0.13285086 0.14392176 0.0 -0.022141809 -0.2435599 0.05535452 -0.11070904
-0.088567235 -0.06642543 0.13285086 0.11070904 -0.19927628 0.17713447 -0.17713447 -0.05535452
-0.19927628 -0.05535452 -0.05535452 -0.07749633 -0.15499265 -0.19927628 -0.19927628 -0.05535452
0.11070904 -0.044283617 -0.09963814 -0.15499265 0.11070904 -0.15499265 0.14392176 -0.14392176
-0.18820538 -0.11070904 0.06642543 -0.09963814 -0.19927628 -0.18820538 -0.11070904 0.044283617
-0.16606356 -0.11070904 -0.022141809 -0.09963814 0.06642543 0.033212714 0.18820538 0.05535452
-0.11070904 0.0 -0.07749633 -0.07749633 0.07749633 -0.033212714 -0.23248899 -0.17713447
-0.18820538 -0.2435599 -0.21034718 -0.16606356 0.13285086 0.011070904 -0.15499265 -0.16606356
-0.18820538 0.15499265 0.088567235 -0.19927628 -0.2657017 -0.044283617 0.033212714 -0.05535452
-0.05535452 -0.12177995 -0.2546308 0.12177995 -0.23248899 0.09963814 0.06642543 -0.17713447
-0.022141809 -0.21034718 0.088567235 -0.022141809 -0.07749633 -0.22141808 -0.13285086 -0.2657017
0.13285086 -0.2657017 0.2657017 -0.11070904 -0.12177995 -0.022141809 0.34319803 0.89674324
0.64211243 -0.14392176 -0.16606356 -0.15499265 0.09963814 -0.21034718 -0.06642543 -0.19927628
-0.35426894 0.088567235 0.07749633 0.13285086 0.27677262 -0.09963814 -0.21034718 -0.12177995
0.13285086 0.16606356 -0.32105622 -0.033212714 -0.07749633 -0.32105622 0.17713447 0.11070904
0.07749633 0.05535452 0.17713447 0.0 0.2546308 -0.17713447 -0.022141809 -0.5424743
0.033212714 -0.13285086 0.5203325 0.18820538 -0.37641075 -0.18820538 0.07749633 0.40962347
0.28784353 -0.46497798 0.27677262 0.46497798 -0.43176526 -0.5314034 0.011070904 0.33212712
0.06642543 -0.13285086 0.15499265 -0.07749633 -0.35426894 -0.15499265 -0.044283617 -0.044283617
-0.34319803 -0.11070904 -0.06642543 0.022141809 0.07749633 -0.34319803 -0.06642543 0.2435599
-0.39855257 0.0 -0.33212712 -0.37641075 -0.022141809 0.34319803 -0.033212714 0.23248899
-0.2435599 0.07749633 0.2546308 -0.18820538 0.2435599 0.15499265 -0.33212712 0.022141809
-0.13285086 0.09963814 0.35426894 0.07749633 0.11070904 -0.22141808 -0.33212712 -0.13285086
-0.09963814 -0.18820538 0.022141809 -0.7860342 -0.088567235 0.8303178 -0.22141808 0.40962347
0.19927628 -0.21034718 0.06642543 -0.21034718 0.05535452 0.05535452 -0.022141809 -0.05535452
-0.3099853 0.27677262 -0.011070904 -0.06642543 0.21034718 -0.7196088 0.13285086 -0.55354524
0.65318334 -0.16606356 0.022141809 -0.06642543 0.07749633 0.32105622 -0.05535452 0.15499265
0.4981907 -0.09963814 -0.06642543 -0.22141808 0.28784353 0.022141809 -0.088567235 0.09963814
-0.28784353 0.14392176 0.0 -0.32105622 -0.17713447 0.44283617 0.3099853 0.55354524
-0.088567235 -0.3099853 1.4060049 0.088567235 0.09963814 -0.5092616 -0.088567235 0.44283617
-0.55354524 0.34319803 0.36533985 -0.044283617 -0.033212714 0.11070904 0.07749633 0.2435599
00000000: 0806 f211 120a ee0b f40c 0d00 feea 05f6
00000010: f8fa 0c0a ee10 f0fb eefb fbf9 f2ee eefb
00000020: 0afc f7f2 0af2 0df3 eff6 06f7 eeef f604
00000030: f1f6 fef7 0603 1105 f600 f9f9 07fd ebf0
00000040: efea edf1 0c01 f2f1 ef0e 08ee e8fc 03fb
00000050: fbf5 e90b eb09 06f0 feed 08fe f9ec f4e8
00000060: 0ce8 18f6 f5fe 1f51 3af3 f1f2 09ed faee
00000070: e008 070c 19f7 edf5 0c0f e3fd f9e3 100a
00000080: 0705 1000 17f0 fecf 03f4 2f11 deef 0725
00000090: 1ad6 192a d9d0 011e 06f4 0ef9 e0f2 fcfc
000000a0: e1f6 fa02 07e1 fa16 dc00 e2de fe1f fd15
000000b0: ea07 17ef 160e e202 f409 2007 0aec e2f4
000000c0: f7ef 02b9 f84b ec25 12ed 06ed 0505 fefb
000000d0: e419 fffa 13bf 0cce 3bf1 02fa 071d fb0e
000000e0: 2df7 faec 1a02 f809 e60d 00e3 f028 1c32
000000f0: f8e4 7f08 09d2 f828 ce1f 21fc fd0a 0716

recog/cnn/GSE_A_1/GSE_A_1_fully_connected2/GSE_A_1_fully_connected2/Tensordot/MatMul i1 [96, 6] scale=0.021643708 zero_point=0
0.23808078 -0.3030119 0.17314966 -0.34629932 0.0 -0.108218536 0.0 0.97396684
0.6060238 0.47616157 0.99561054 -0.12986225 0.08657483 -0.45451787 -1.0821854 -0.36794302
0.49780527 0.0 0.043287415 0.0 -0.064931124 -0.043287415 0.2597245 0.0
-0.043287415 -0.043287415 0.2597245 -0.12986225 0.043287415 0.08657483 0.21643707 2.4240952
1.9912211 2.597245 2.1210833 0.19479337 0.19479337 -0.2813682 0.3030119 0.021643708
-0.23808078 0.043287415 -0.043287415 2.748751 2.207658 2.6838198 2.0994396 0.21643707
0.108218536 -0.2597245 -0.064931124 0.021643708 0.064931124 0.108218536 0.21643707 0.8657483
0.95232314 0.8008172 0.8657483 0.15150595 -0.043287415 0.23808078 -0.17314966 0.12986225
0.45451787 0.064931124 0.0 -0.12986225 0.17314966 -0.021643708 0.19479337 -0.12986225
0.043287415 -0.2597245 -0.19479337 0.12986225 -0.021643708 0.2597245 0.043287415 -0.064931124
0.36794302 -0.43287414 -0.5627364 -0.17314966 -0.15150595 0.45451787 -0.23808078 0.45451787
0.5410927 -0.15150595 -0.021643708 0.21643707 -0.043287415 -0.043287415 0.12986225 0.17314966
0.064931124 0.36794302 0.12986225 0.21643707 0.32465562 -0.19479337 0.043287415 2.4024515
2.056152 2.3158767 1.8613589 0.064931124 0.2597245 -0.3030119 0.519449 -0.75752974
0.064931124 -0.17314966 0.23808078 1.0821854 0.71424234 0.8008172 0.887392 0.021643708
-0.08657483 -0.021643708 0.0 -0.021643708 -0.49780527 -0.043287415 0.15150595 0.064931124
0.064931124 -0.108218536 0.043287415 0.21643707 -0.19479337 1.4501284 1.0821854 1.5367032
1.4501284 0.12986225 0.0 2.056152 2.3591642 1.623278 2.0345085 0.021643708
0.15150595 -0.108218536 -0.2597245 -0.08657483 0.36794302 -0.021643708 -0.17314966 0.021643708
0.519449 -0.45451787 0.2813682 -0.08657483 0.08657483 0.043287415 0.08657483 -0.15150595
0.23808078 -0.21643707 0.21643707 0.8008172 0.71424234 1.1471165 1.2120476 0.21643707
-0.021643708 -0.49780527 -1.0821854 -0.519449 0.08657483 -0.17314966 0.0 -0.064931124
0.064931124 0.0 -0.064931124 -0.21643707 0.043287415 -0.021643708 0.15150595 -0.15150595
0.021643708 0.15150595 -0.043287415 -0.41123044 -0.3030119 -0.7791735 -0.75752974 0.21643707
-0.064931124 0.064931124 -0.38958675 0.21643707 0.36794302 0.064931124 0.021643708 -0.021643708
0.2597245 -0.47616157 -0.97396684 0.23808078 -0.043287415 0.108218536 -0.021643708 -0.043287415
-0.021643708 0.19479337 -0.08657483 -0.21643707 0.0 -0.064931124 0.043287415 0.21643707
-0.108218536 -0.108218536 -0.08657483 -0.043287415 0.17314966 0.021643708 -0.08657483 -0.043287415
0.0 0.043287415 -0.108218536 -0.15150595 0.12986225 -0.043287415 0.15150595 -0.08657483
-0.064931124 0.0 -0.19479337 0.2813682 -0.108218536 -0.08657483 -0.021643708 0.12986225
0.043287415 -0.17314966 0.43287414 -0.108218536 -0.108218536 0.15150595 -0.23808078 -0.23808078
0.0 0.021643708 0.08657483 0.17314966 0.108218536 -0.36794302 0.12986225 0.043287415
00000000: 0bf2 08f0 00fb 002d 1c16 2efa 04eb ceef
00000010: 1700 0200 fdfe 0c00 fefe 0cfa 0204 0a70
00000020: 5c78 6209 09f3 0e01 f502 fe7f 667c 610a
00000030: 05f4 fd01 0305 0a28 2c25 2807 fe0b f806
00000040: 1503 00fa 08ff 09fa 02f4 f706 ff0c 02fd
00000050: 11ec e6f8 f915 f515 19f9 ff0a fefe 0608
00000060: 0311 060a 0ff7 026f 5f6b 5603 0cf2 18dd
00000070: 03f8 0b32 2125 2901 fcff 00ff e9fe 0703
00000080: 03fb 020a f743 3247 4306 005f 6d4b 5e01
00000090: 07fb f4fc 11ff f801 18eb 0dfc 0402 04f9
000000a0: 0bf6 0a25 2135 380a ffe9 cee8 04f8 00fd
000000b0: 0300 fdf6 02ff 07f9 0107 feed f2dc dd0a
000000c0: fd03 ee0a 1103 01ff 0cea d30b fe05 fffe
000000d0: ff09 fcf6 00fd 020a fbfb fcfe 0801 fcfe
000000e0: 0002 fbf9 06fe 07fc fd00 f70d fbfc ff06
000000f0: 02f8 14fb fb07 f5f5 0001 0408 05ef 0602

recog/cnn/GSE_B_2/GSE_B_2_fully_connected1/GSE_B_2_fully_connected1/Tensordot/MatMul i1 [9, 156] scale=0.009619724 zero_point=0
0.038478896 0.028859172 0.0 0.04809862 -0.13467613 -0.009619724 -0.04809862 -0.16353531
-0.22125365 -0.12505642 -0.13467613 -0.009619724 -0.17315504 -0.22125365 -0.13467613 -0.13467613
-0.12505642 -0.04809862 0.12505642 -0.13467613 0.14429586 0.10581696 0.12505642 -0.019239448
-0.10581696 -0.028859172 0.12505642 -0.10581696 -0.13467613 0.019239448 -0.16353531 0.11543669
-0.08657752 -0.16353531 -0.09619724 -0.11543669 0.04809862 0.019239448 0.067338064 -0.14429586
-0.21163392 0.067338064 0.0 -0.019239448 -0.08657752 -0.21163392 -0.14429586 0.15391558
0.11543669 -0.19239448 -0.14429586 -0.21163392 0.13467613 -0.13467613 -0.038478896 -0.019239448
0.038478896 -0.12505642 0.08657752 0.028859172 -0.019239448 -0.20201421 -0.019239448 -0.23087338
-0.13467613 -0.12505642 -0.057718344 -0.019239448 -0.057718344 0.11543669 -0.11543669 -0.17315504
0.009619724 -0.13467613 -0.057718344 -0.19239448 0.009619724 0.17315504 -0.15391558 0.038478896
-0.15391558 0.009619724 0.067338064 0.04809862 -0.21163392 -0.21163392 -0.13467613 -0.11543669
-0.07695779 0.17315504 -0.009619724 -0.20201421 -0.08657752 -0.21163392 -0.21163392 0.14429586
0.11543669 0.04809862 -0.22125365 -0.10581696 -0.028859172 -0.04809862 -0.028859172 0.08657752
-0.04809862 -0.009619724 -0.15391558 0.067338064 -0.057718344 -0.057718344 -0.09619724 -0.067338064
0.057718344 -0.08657752 -0.057718344 -0.16353531 -0.08657752 0.009619724 -0.009619724 -0.20201421
-0.22125365 -0.08657752 -0.22125365 0.10581696 -0.13467613 0.10581696 -0.20201421 -0.028859172
-0.11543669 -0.09619724 -0.15391558 0.057718344 0.07695779 -0.067338064 0.10581696 0.11543669
0.15391558 0.13467613 -0.009619724 0.08657752 0.0 -0.14429586 -0.23087338 -0.028859172
0.14429586 0.09619724 0.14429586 -0.16353531 -0.23087338 -0.038478896 -0.11543669 0.009619724
-0.13467613 0.038478896 0.10581696 0.038478896 -0.34631008 0.028859172 -0.19239448 -0.12505642
0.18277475 -0.019239448 -0.31745088 0.18277475 -0.13467613 0.04809862 -0.04809862 0.30783117
0.30783117 0.18277475 0.62528205 -0.22125365 0.33669034 -0.028859172 0.39440867 0.2885917
0.057718344 -0.038478896 -0.2885917 0.12505642 -0.12505642 0.09619724 -0.057718344 0.2885917
0.067338064 -0.16353531 0.18277475 0.08657752 0.16353531 -0.09619724 -0.3559298 -0.16353531
-0.04809862 -0.21163392 0.09619724 -0.10581696 -0.067338064 0.10581696 0.32707062 -0.25973254
0.15391558 -0.15391558 -0.11543669 0.3559298 0.21163392 0.21163392 -0.12505642 0.45212704
-0.46174675 0.028859172 0.0 -0.19239448 0.12505642 0.028859172 -0.77919763 -0.15391558
-0.08657752 -0.278972 -0.15391558 0.057718344 -0.15391558 0.21163392 0.08657752 0.19239448
-0.15391558 0.14429586 -0.04809862 -0.26935226 -0.17315504 -0.038478896 0.29821146 0.21163392
0.038478896 -0.11543669 0.25973254 -0.028859172 -0.10581696 0.278972 -0.41364813 0.21163392
-0.4809862 0.41364813 -0.25011283 0.04809862 0.07695779 0.15391558 0.057718344 0.19239448
-0.04809862 -0.30783117 -0.2404931 -1.0677893 -0.07695779 0.18277475 0.21163392 -0.16353531
00000000: 0403 0005 f2ff fbef e9f3 f2ff eee9 f2f2
00000010: f3fb 0df2 0f0b 0dfe f5fd 0df5 f202 ef0c
00000020: f7ef f6f4 0502 07f1 ea07 00fe f7ea f110
00000030: 0cec f1ea 0ef2 fcfe 04f3 0903 feeb fee8
00000040: f2f3 fafe fa0c f4ee 01f2 faec 0112 f004
00000050: f001 0705 eaea f2f4 f812 ffeb f7ea ea0f
00000060: 0c05 e9f5 fdfb fd09 fbff f007 fafa f6f9
00000070: 06f7 faef f701 ffeb e9f7 e90b f20b ebfd
00000080: f4f6 f006 08f9 0b0c 100e ff09 00f1 e8fd
00000090: 0f0a 0fef e8fc f401 f204 0b04 dc03 ecf3
000000a0: 13fe df13 f205 fb20 2013 41e9 23fd 291e
000000b0: 06fc e20d f30a fa1e 07ef 1309 11f6 dbef
000000c0: fbea 0af5 f90b 22e5 10f0 f425 1616 f32f
000000d0: d003 00ec 0d03 aff0 f7e3 f006 f016 0914
000000e0: f00f fbe4 eefc 1f16 04f4 1bfd f51d d516
000000f0: ce2b e605 0810 0614 fbe0 e791 f813 16ef

recog/cnn/GSE_B_2/GSE_B_2_fully_connected2/GSE_B_2_fully_connected2/Tensordot/MatMul i1 [156, 9] scale=0.011313432 zero_point=0
0.0 -0.079194024 -0.090507455 -0.37334326 0.079194024 -0.11313432 0.011313432 0.033940297
0.06788059 -0.14707461 0.21495521 -0.06788059 -0.27152237 -0.20364177 -0.045253728 0.12444775
-0.05656716 0.045253728 0.045253728 0.11313432 -0.033940297 -0.497791 0.13576119 -0.06788059
0.05656716 -0.06788059 -0.101820886 -0.12444775 -0.23758207 -0.30546266 -0.05656716 -0.06788059
-0.045253728 0.011313432 -0.19232835 -0.13576119 -0.18101491 0.12444775 -0.20364177 0.27152237
-0.2488955 -0.18101491 -0.18101491 -0.40728354 -0.045253728 -0.05656716 0.022626864 -0.12444775
-0.30546266 -0.06788059 0.090507455 0.19232835 -0.011313432 0.12444775 -0.101820886 0.079194024
-0.33940294 -0.11313432 0.022626864 -0.090507455 0.033940297 0.101820886 0.079194024 0.06788059
0.13576119 -0.11313432 -0.11313432 -0.045253728 -0.13576119 0.18101491 -0.14707461 -0.045253728
0.05656716 0.26020893 -0.06788059 -0.22626863 -0.090507455 -0.14707461 -0.11313432 -0.06788059
0.12444775 -0.090507455 0.15838805 -0.19232835 -0.29414922 -0.090507455 -0.06788059 0.11313432
0.079194024 -0.15838805 0.16970147 0.19232835 -0.05656716 -0.26020893 0.022626864 -0.13576119
0.06788059 -0.079194024 0.05656716 0.101820886 -0.3167761 -0.011313432 0.101820886 -0.101820886
-0.20364177 -0.19232835 -0.22626863 0.011313432 0.022626864 0.19232835 0.05656716 -0.18101491
-0.18101491 0.06788059 -0.090507455 -0.045253728 0.101820886 0.101820886 0.29414922 -0.7806268
-0.022626864 0.21495521 -0.35071638 -0.022626864 -0.497791 0.101820886 0.20364177 -0.11313432
-0.54304475 -0.18101491 0.13576119 -0.14707461 0.022626864 -0.45253727 0.045253728 0.05656716
0.022626864 -0.079194024 -0.079194024 -0.12444775 0.011313432 -0.011313432 -0.090507455 0.0
0.05656716 -0.3959701 -0.6674925 -0.033940297 0.3959701 -0.16970147 -0.033940297 -0.090507455
-0.18101491 -0.21495521 0.13576119 -0.62223876 0.30546266 -0.16970147 -0.15838805 0.011313432
0.12444775 0.15838805 -0.079194024 -0.090507455 -0.45253727 0.05656716 -0.576985 -0.35071638
0.011313432 0.42991042 -0.079194024 0.15838805 0.011313432 -0.033940297 -0.5543582 0.47516415
-0.48647758 -0.011313432 -0.4638507 -0.079194024 -0.06788059 -0.022626864 -0.06788059 -0.29414922
-0.079194024 -0.079194024 0.045253728 -0.05656716 0.15838805 -0.15838805 0.32808954 -0.18101491
-0.090507455 -0.37334326 -0.11313432 0.033940297 0.19232835 0.05656716 -0.101820886 0.16970147
-0.06788059 -0.101820886 -0.16970147 0.011313432 0.12444775 -0.27152237 0.15838805 -0.079194024
-0.19232835 0.14707461 0.11313432 -0.033940297 -0.05656716 -0.079194024 -0.045253728 -0.033940297
0.16970147 -0.13576119 -0.15838805 -0.14707461 0.033940297 0.05656716 0.05656716 -0.3167761
-0.18101491 -0.06788059 -0.045253728 -0.06788059 -0.15838805 -0.26020893 -0.045253728 -0.05656716
0.0 0.045253728 0.14707461 0.06788059 -0.011313432 -0.18101491 -0.14707461 -0.022626864
0.18101491 -0.090507455 0.06788059 0.101820886 -0.079194024 -0.3846567 0.090507455 -0.29414922
0.05656716 0.21495521 -0.6901193 0.15838805 0.101820886 0.090507455 -0.022626864 -0.29414922
00000000: 00f9 f8df 07f6 0103 06f3 13fa e8ee fc0b
00000010: fb04 040a fdd4 0cfa 05fa f7f5 ebe5 fbfa
00000020: fc01 eff4 f00b ee18 eaf0 f0dc fcfb 02f5
00000030: e5fa 0811 ff0b f707 e2f6 02f8 0309 0706
00000040: 0cf6 f6fc f410 f3fc 0517 faec f8f3 f6fa
00000050: 0bf8 0eef e6f8 fa0a 07f2 0f11 fbe9 02f4
00000060: 06f9 0509 e4ff 09f7 eeef ec01 0211 05f0
00000070: f006 f8fc 0909 1abb fe13 e1fe d409 12f6
00000080: d0f0 0cf3 02d8 0405 02f9 f9f5 01ff f800
00000090: 05dd c5fd 23f1 fdf8 f0ed 0cc9 1bf1 f201
000000a0: 0b0e f9f8 d805 cde1 0126 f90e 01fd cf2a
000000b0: d5ff d7f9 fafe fae6 f9f9 04fb 0ef2 1df0
000000c0: f8df f603 1105 f70f faf7 f101 0be8 0ef9
000000d0: ef0d 0afd fbf9 fcfd 0ff4 f2f3 0305 05e4
000000e0: f0fa fcfa f2e9 fcfb 0004 0d06 fff0 f3fe
000000f0: 10f8 0609 f9de 08e6 0513 c30e 0908 fee6

recog/cnn/conv2d/Conv2D i1 [32, 3, 3, 3]
108 -45 -82 79 -28 -35 -58 15
52 88 -35 -91 12 15 41 -127
38 53 42 -26 -40 -72 37 78
-72 26 26 55 104 -45 -53 -67
9 -34 -57 76 99 127 -29 -45
-42 -16 -74 -105 16 58 51 -34
46 33 6 -55 -39 17 27 114
-21 90 127 39 -17 -24 -6 70
113 7 8 -80 -21 -64 -81 -3
-13 -28 -7 -85 -110 -3 -18 -31
17 1 -6 -22 -17 -6 25 7
29 -10 22 -44 23 -33 -103 -40
-65 -104 28 -22 55 0 75 127
21 32 53 -27 -72 7 60 -108
-24 127 55 -28 -23 -103 15 97
61 -85 32 64 57 -127 -45 -5
39 123 11 -125 26 49 -76 45
94 35 69 127 50 22 41 8
-63 -83 -20 -78 -112 -42 -26 -52
-13 9 -16 -10 19 -5 -6 3
10 0 19 -18 -19 -89 1 9
80 77 49 49 -21 -13 -106 -127
-76 8 116 76 69 21 3 -27
-85 -66 -4 39 37 23 -52 -12
21 37 -17 -36 49 -11 -54 80
0 -118 93 18 -39 34 -19 14
-11 12 97 -127 -6 80 -74 23
-49 -28 79 -82 -46 127 -33 -49
84 16 8 -22 10 6 -14 9
1 -12 56 18 -75 64 47 -111
12 42 -54 45 13 51 -51 -99
-40 -30 2 6 -27 -81 -56 -36
00000000: 6cd3 ae4f e4dd c60f 3458 dda5 0c0f 2981
00000010: 2635 2ae6 d8b8 254e b81a 1a37 68d3 cbbd
00000020: 09de c74c 637f e3d3 d6f0 b697 103a 33de
00000030: 2e21 06c9 d911 1b72 eb5a 7f27 efe8 fa46
00000040: 7107 08b0 ebc0 affd f3e4 f9ab 92fd eee1
00000050: 1101 faea effa 1907 1df6 16d4 17df 99d8
00000060: bf98 1cea 3700 4b7f 1520 35e5 b807 3c94
00000070: e87f 37e4 e999 0f61 3dab 2040 3981 d3fb
00000080: 277b 0b83 1a31 b42d 5e23 457f 3216 2908
00000090: c1ad ecb2 90d6 e6cc f309 f0f6 13fb fa03
000000a0: 0a00 13ee eda7 0109 504d 3131 ebf3 9681
000000b0: b408 744c 4515 03e5 abbe fc27 2517 ccf4
000000c0: 1525 efdc 31f5 ca50 008a 5d12 d922 ed0e
000000d0: f50c 6181 fa50 b617 cfe4 4fae d27f dfcf
000000e0: 5410 08ea 0a06 f209 01f4 3812 b540 2f91
000000f0: 0c2a ca2d 0d33 cd9d d8e2 0206 e5af c8dc

recog/cnn/extra/Conv2D i1 [64, 3, 3, 32]
11 14 -27 -3 -5 1 -22 -25
-19 -38 12 14 -6 19 -16 21
0 -19 -23 21 -31 -4 -5 5
-14 23 -11 17 1 -2 -8 -3
79 -39 87 -59 124 -3 -91 19
26 74 -82 -39 74 -86 52 85
19 93 -1 -127 49 76 -37 -16
10 -36 -13 -104 -79 52 73 16
60 -14 78 -3 100 3 -49 6
-48 56 -29 -32 62 -61 -14 56
19 78 -5 -80 15 38 -47 -38
-21 -25 -17 -51 -58 6 72 29
4 -9 -12 -21 -9 -20 3 -24
-1 -14 9 -9 -18 0 -4 21
21 18 -11 -26 7 12 17 9
-20 4 -14 -25 -17 11 -1 6
36 1 41 -3 7 13 -34 34
6 60 -26 -27 51 -8 29 -11
-1 42 -7 -12 48 -24 -31 7
41 -19 12 22 -1 -11 25 4
-68 7 -57 48 -86 -2 29 -19
29 -21 20 -35 -55 54 0 -61
-36 -40 -29 80 35 -54 25 18
-6 -3 19 47 59 -57 -15 -51
-25 7 -1 15 -23 -11 14 19
13 -42 9 19 -18 26 -10 -9
-5 -4 10 10 -8 -19 14 -3
29 0 9 15 4 3 -15 -3
-58 -7 -55 20 -69 -8 60 -17
36 -40 29 35 -43 43 -3 -67
-23 -83 -21 57 -17 -16 31 24
-13 27 -11 56 40 -56 -43 -23
00000000: 0b0e e5fd fb01 eae7 edda 0c0e fa13 f015
00000010: 00ed e915 e1fc fb05 f217 f511 01fe f8fd
00000020: 4fd9 57c5 7cfd a513 1a4a aed9 4aaa 3455
00000030: 135d ff81 314c dbf0 0adc f398 b134 4910
00000040: 3cf2 4efd 6403 cf06 d038 e3e0 3ec3 f238
00000050: 134e fbb0 0f26 d1da ebe7 efcd c606 481d
00000060: 04f7 f4eb f7ec 03e8 fff2 09f7 ee00 fc15
00000070: 1512 f5e6 070c 1109 ec04 f2e7 ef0b ff06
00000080: 2401 29fd 070d de22 063c e6e5 33f8 1df5
00000090: ff2a f9f4 30e8 e107 29ed 0c16 fff5 1904
000000a0: bc07 c730 aafe 1ded 1deb 14dd c936 00c3
000000b0: dcd8 e350 23ca 1912 fafd 132f 3bc7 f1cd
000000c0: e707 ff0f e9f5 0e13 0dd6 0913 ee1a f6f7
000000d0: fbfc 0a0a f8ed 0efd 1d00 090f 0403 f1fd
000000e0: c6f9 c914 bbf8 3cef 24d8 1d23 d52b fdbd
000000f0: e9ad eb39 eff0 1f18 f31b f538 28c8 d5e9

recog/cnn/conv2d_1/Conv2D i1 [96, 3, 3, 64]
57 1 -48 47 -40 13 -38 -105
9 54 -26 -23 -20 24 -17 37
-13 -25 79 1 59 -60 -6 -26
6 64 -40 14 3 -50 -22 13
3 -7 -6 43 35 -11 42 10
-5 25 16 -61 6 -38 2 2
1 86 2 55 42 38 61 -43
-6 -8 10 0 35 -43 42 -44
-11 -12 -8 -20 -32 53 -5 -53
36 -35 44 -11 9 -16 30 29
4 29 1 -30 5 25 -42 26
-7 -1 -6 -5 26 -2 58 16
-7 -1 42 0 9 -43 26 29
-9 -51 2 -18 5 2 -21 -40
38 -8 -8 1 -19 12 -4 -31
-13 12 1 14 -38 -28 74 4
-55 -24 -35 -59 -47 -22 12 -33
23 -76 1 10 6 23 9 -9
-49 5 -7 -45 34 -25 30 38
-27 0 -10 -9 -7 -28 -81 48
56 30 30 -90 -16 49 -40 10
7 -26 -25 -21 32 24 54 -79
-3 -51 69 53 -39 31 -1 9
11 30 10 -37 -40 15 58 -83
39 -14 -36 -12 -49 9 11 -1
-18 19 17 -22 -43 -48 -1 13
-30 -37 -27 6 3 8 -48 -51
0 41 -59 73 32 12 37 -29
-48 -25 -23 32 5 -54 11 -35
-32 1 49 -34 4 -22 31 -3
-12 -19 -95 -61 -10 -33 -6 -41
-44 -35 -43 -11 -7 -3 -73 11
00000000: 3901 d02f d80d da97 0936 e6e9 ec18 ef25
00000010: f3e7 4f01 3bc4 fae6 0640 d80e 03ce ea0d
00000020: 03f9 fa2b 23f5 2a0a fb19 10c3 06da 0202
00000030: 0156 0237 2a26 3dd5 faf8 0a00 23d5 2ad4
00000040: f5f4 f8ec e035 fbcb 24dd 2cf5 09f0 1e1d
00000050: 041d 01e2 0519 d61a f9ff fafb 1afe 3a10
00000060: f9ff 2a00 09d5 1a1d f7cd 02ee 0502 ebd8
00000070: 26f8 f801 ed0c fce1 f30c 010e dae4 4a04
00000080: c9e8 ddc5 d1ea 0cdf 17b4 010a 0617 09f7
00000090: cf05 f9d3 22e7 1e26 e500 f6f7 f9e4 af30
000000a0: 381e 1ea6 f031 d80a 07e6 e7eb 2018 36b1
000000b0: fdcd 4535 d91f ff09 0b1e 0adb d80f 3aad
000000c0: 27f2 dcf4 cf09 0bff ee13 11ea d5d0 ff0d
000000d0: e2db e506 0308 d0cd 0029 c549 200c 25e3
000000e0: d0e7 e920 05ca 0bdd e001 31de 04ea 1ffd
000000f0: f4ed a1c3 f6df fad7 d4dd d5f5 f9fd b70b

recog/cnn/conv2d_2/Conv2D i1 [156, 3, 3, 96]
32 42 -22 22 -9 13 26 17
0 14 3 -20 7 -3 9 -2
6 -12 13 -20 3 -28 13 -20
41 25 -32 3 0 14 -18 11
-22 -1 18 -19 -20 54 -12 36
-14 -1 18 -8 -14 -6 -37 -2
36 13 2 11 -12 -31 3 38
-66 -15 0 4 21 4 5 36
53 10 -16 -5 -32 -23 24 29
-7 18 -1 -26 -24 -11 -67 -10
-9 -35 -56 -15 24 -16 9 10
-10 -30 29 -3 -23 15 -1 -31
23 23 -27 -9 -6 -9 15 5
25 -1 1 9 -31 -49 -12 5
2 -12 -5 -6 -1 -20 -10 -7
31 4 -27 16 -33 18 5 2
-8 24 15 -37 4 11 -30 18
16 6 2 7 7 -26 -12 11
5 33 -22 2 1 -18 -21 7
-17 -14 -13 -8 -18 34 8 14
-8 8 -4 -10 9 -56 -11 -53
20 -15 14 15 17 -7 13 0
-7 8 38 -12 -2 -8 22 26
-40 17 -1 6 -20 -40 7 -19
-16 -31 -18 -34 10 30 8 9
-5 4 -21 16 30 -35 20 0
-31 -12 10 -29 -2 -15 -14 -22
13 20 -23 -3 -70 -23 47 6
4 28 42 -64 -9 -17 -9 19
-30 4 -20 -7 -19 13 -23 26
-24 30 41 -5 -13 3 -9 9
-8 21 19 13 5 35 -12 10
00000000: 202a ea16 f70d 1a11 000e 03ec 07fd 09fe
00000010: 06f4 0dec 03e4 0dec 2919 e003 000e ee0b
00000020: eaff 12ed ec36 f424 f2ff 12f8 f2fa dbfe
00000030: 240d 020b f4e1 0326 bef1 0004 1504 0524
00000040: 350a f0fb e0e9 181d f912 ffe6 e8f5 bdf6
00000050: f7dd c8f1 18f0 090a f6e2 1dfd e90f ffe1
00000060: 1717 e5f7 faf7 0f05 19ff 0109 e1cf f405
00000070: 02f4 fbfa ffec f6f9 1f04 e510 df12 0502
00000080: f818 0fdb 040b e212 1006 0207 07e6 f40b
00000090: 0521 ea02 01ee eb07 eff2 f3f8 ee22 080e
000000a0: f808 fcf6 09c8 f5cb 14f1 0e0f 11f9 0d00
000000b0: f908 26f4 fef8 161a d811 ff06 ecd8 07ed
000000c0: f0e1 eede 0a1e 0809 fb04 eb10 1edd 1400
000000d0: e1f4 0ae3 fef1 f2ea 0d14 e9fd bae9 2f06
000000e0: 041c 2ac0 f7ef f713 e204 ecf9 ed0d e91a
000000f0: e81e 29fb f303 f709 f815 130d 0523 f40a

recog/cnn/conv2d_3/Conv2D i1 [224, 3, 3, 156]
-20 -19 6 2 -27 40 9 32
6 -17 37 44 14 26 32 14
41 -26 10 -6 -6 19 2 -2
15 -28 -26 66 -13 -5 -38 -4
1 -4 1 0 19 18 6 32
3 -9 -26 11 24 -4 -14 15
17 -9 5 5 11 18 -37 -1
5 -17 -30 14 -44 10 11 -38
67 -39 -3 17 17 21 14 31
-3 11 20 37 0 11 34 8
5 14 48 23 -1 3 25 -8
-16 6 -4 7 -35 -3 -9 -10
7 -18 -18 31 -4 -21 -3 -27
-10 3 -56 -9 8 -23 1 7
5 -10 8 13 -13 0 9 -22
29 23 0 20 -7 -24 13 -37
-7 -2 -12 16 -26 6 6 1
8 39 8 7 1 23 9 -24
-24 -32 19 13 27 -27 43 9
-17 -8 16 13 53 -85 -20 7
55 -19 -2 -12 -12 -45 7 20
14 45 10 14 46 -17 -17 17
-16 -5 15 19 -15 -77 3 56
-21 37 -9 -5 -24 11 0 -50
-4 11 19 19 40 -32 -16 -21
2 25 -81 11 -4 9 7 -35
-56 -68 36 29 -7 -27 -63 -24
45 43 -7 11 48 6 -1 -27
-2 43 -55 23 3 1 -7 25
24 0 9 47 7 -34 62 12
-55 -39 6 20 -14 -6 -21 -30
2 8 2 -52 58 -8 -53 -8
00000000: eced 0602 e528 0920 06ef 252c 0e1a 200e
00000010: 29e6 0afa fa13 02fe 0fe4 e642 f3fb dafc
00000020: 01fc 0100 1312 0620 03f7 e60b 18fc f20f
00000030: 11f7 0505 0b12 dbff 05ef e20e d40a 0bda
00000040: 43d9 fd11 1115 0e1f fd0b 1425 000b 2208
00000050: 050e 3017 ff03 19f8 f006 fc07 ddfd f7f6
00000060: 07ee ee1f fceb fde5 f603 c8f7 08e9 0107
00000070: 05f6 080d f300 09ea 1d17 0014 f9e8 0ddb
00000080: f9fe f410 e606 0601 0827 0807 0117 09e8
00000090: e8e0 130d 1be5 2b09 eff8 100d 35ab ec07
000000a0: 37ed fef4 f4d3 0714 0e2d 0a0e 2eef ef11
000000b0: f0fb 0f13 f1b3 0338 eb25 f7fb e80b 00ce
000000c0: fc0b 1313 28e0 f0eb 0219 af0b fc09 07dd
000000d0: c8bc 241d f9e5 c1e8 2d2b f90b 3006 ffe5
000000e0: fe2b c917 0301 f919 1800 092f 07de 3e0c
000000f0: c9d9 0614 f2fa ebe2 0208 02cc 3af8 cbf8

recog/cnn/conv2d_4/Conv2D i1 [164, 1, 1, 320]
-53 6 3 -17 -15 11 -31 3
25 -10 38 -78 -28 -18 -4 -5
-24 -29 -39 -30 2 -9 -15 -4
-26 6 -13 3 -20 -5 36 6
-10 33 -41 -20 -20 18 -15 4
-19 -39 14 -8 -1 -37 -69 -4
4 -41 -43 9 -23 5 -8 -6
-82 1 -17 -1 21 40 1 21
37 -41 -36 15 61 10 50 11
10 -13 -9 -6 127 9 -73 -7
-51 -27 23 -16 65 6 -33 62
-48 21 -5 31 -23 -27 35 1
-52 -15 -63 -7 15 3 -10 -83
-42 -38 -35 -45 18 28 12 9
-55 -19 -6 17 3 -2 69 13
-6 -19 14 -58 -2 12 24 -29
-36 24 18 -9 -35 -11 40 -18
9 -10 -11 17 -44 -6 12 35
-18 -7 9 -37 0 -43 28 -87
-20 23 17 57 -18 9 -13 -17
-22 19 -26 11 -7 -21 -10 20
-29 39 6 4 -52 -4 33 39
16 67 -27 -39 4 17 13 -3
-54 -54 -11 36 56 16 8 17
29 -15 18 -1 -42 -9 3 -4
33 -11 0 -6 -9 -56 -6 51
-22 -10 -40 -14 17 -3 -78 -26
14 -7 -22 -6 57 44 93 -5
-15 3 21 17 15 4 1 2
16 22 1 30 -4 25 -36 -14
39 -2 8 2 -22 -14 -18 1
8 -32 24 -9 62 -2 44 1
00000000: cb06 03ef f10b e103 19f6 26b2 e4ee fcfb
00000010: e8e3 d9e2 02f7 f1fc e606 f303 ecfb 2406
00000020: f621 d7ec ec12 f104 edd9 0ef8 ffdb bbfc
00000030: 04d7 d509 e905 f8fa ae01 efff 1528 0115
00000040: 25d7 dc0f 3d0a 320b 0af3 f7fa 7f09 b7f9
00000050: cde5 17f0 4106 df3e d015 fb1f e9e5 2301
00000060: ccf1 c1f9 0f03 f6ad d6da ddd3 121c 0c09
00000070: c9ed fa11 03fe 450d faed 0ec6 fe0c 18e3
00000080: dc18 12f7 ddf5 28ee 09f6 f511 d4fa 0c23
00000090: eef9 09db 00d5 1ca9 ec17 1139 ee09 f3ef
000000a0: ea13 e60b f9eb f614 e327 0604 ccfc 2127
000000b0: 1043 e5d9 0411 0dfd caca f524 3810 0811
000000c0: 1df1 12ff d6f7 03fc 21f5 00fa f7c8 fa33
000000d0: eaf6 d8f2 11fd b2e6 0ef9 eafa 392c 5dfb
000000e0: f103 1511 0f04 0102 1016 011e fc19 dcf2
000000f0: 27fe 0802 eaf2 ee01 08e0 18f7 3efe 2c01
