system/system/saiv/textrecognition/stride/mSTR_Latin_CNN.tflite (tflite, 622720 bytes, 11 tensors)

recog/cnn/GSE_B_2_fully_connected1/bias i1 [9] scale=0.007825221 zero_point=0
0.054776546 0.9938031 -0.046951324 -0.039126106 0.0 0.11737832 0.42256194 -0.039126106
0.14085397
00000000: 077f fafb 000f 36fb 12

recog/cnn/GSE_A_1/GSE_A_1_fully_connected1/GSE_A_1_fully_connected1/Tensordot/MatMul i1 [6, 96] scale=0.009093618 zero_point=0
-0.67292774 0.28190216 -0.1000298 0.17277874 0.018187236 -0.28190216 -0.2546213 0.31827664
-0.081842564 0.3000894 -0.21824683 -0.063655324 0.027280854 0.1545915 -0.036374472 -0.027280854
-0.5274298 0.2546213 0.18187237 -0.14549789 0.13640428 -0.009093618 -0.21824683 -0.20915322
-0.43649366 0.081842564 -0.19096598 -0.009093618 0.27280855 -0.5547107 -0.69111496 0.19096598
-0.18187237 -0.081842564 0.28190216 -0.32737026 -0.17277874 -0.17277874 0.18187237 -0.14549789
-0.045468092 0.054561708 0.063655324 -0.20915322 -0.018187236 0.027280854 -0.41830644 0.1545915
0.109123416 -0.17277874 0.109123416 -0.32737026 -0.2000596 -0.78205115 0.14549789 -0.1545915
-0.5910852 -0.34555748 0.5274298 -0.7911448 -0.20915322 0.009093618 -0.2637149 0.027280854
0.36374474 -0.28190216 -0.7729575 0.045468092 0.045468092 0.22734044 0.1000298 -0.13640428
0.24552768 0.118217036 0.1545915 0.081842564 -0.2000596 0.12731065 0.018187236 0.054561708
-0.31827664 0.21824683 0.19096598 0.045468092 -0.14549789 0.33646387 0.9184554 -0.19096598
-0.063655324 -0.2546213 0.31827664 -0.2000596 0.20915322 0.14549789 0.118217036 0.46377453
0.3000894 -0.7093022 -0.13640428 0.072748944 -0.018187236 -0.16368513 0.24552768 0.3000894
0.22734044 -0.036374472 -0.29099578 0.2546213 -0.46377453 -0.1545915 0.41830644 -0.13640428
0.1000298 -0.045468092 -0.072748944 -0.2637149 -0.009093618 -0.054561708 0.33646387 -0.090936184
0.072748944 -0.12731065 0.16368513 0.109123416 0.036374472 -0.82751924 -0.16368513 -0.018187236
-0.090936184 -0.045468092 0.036374472 0.309183 0.12731065 0.2637149 -0.6001788 -0.1545915
0.118217036 -0.22734044 0.42740005 0.0 -0.063655324 -0.13640428 -0.6092724 0.054561708
0.045468092 -0.1000298 -0.33646387 0.309183 0.17277874 0.081842564 0.23643407 -0.1545915
0.28190216 0.53652346 -0.19096598 0.32737026 0.16368513 -0.027280854 -0.21824683 0.12731065
-0.045468092 -0.1545915 0.14549789 0.063655324 -0.7456767 0.32737026 -0.081842564 0.46377453
0.090936184 0.090936184 0.009093618 0.13640428 -0.18187237 -0.054561708 0.7183958 0.081842564
0.41830644 -0.21824683 0.6820214 -1.1548895 0.27280855 0.1545915 -0.2637149 -0.29099578
0.027280854 -0.22734044 -0.16368513 -0.13640428 -0.39102557 0.22734044 -0.14549789 -0.5092426
-0.49105537 -0.109123416 -0.20915322 0.5092426 0.16368513 -0.090936184 -0.2000596 -0.309183
0.045468092 -0.027280854 -0.027280854 0.109123416 -0.17277874 0.090936184 0.109123416 -0.13640428
-0.21824683 -0.009093618 -0.063655324 -0.090936184 -0.6092724 0.118217036 0.2000596 -0.072748944
-0.054561708 0.16368513 0.1000298 0.109123416 0.1545915 -0.081842564 -0.6820214 0.118217036
0.036374472 -0.22734044 0.18187237 -0.2637149 -0.2000596 0.0 -0.19096598 0.17277874
0.109123416 -0.054561708 0.20915322 0.063655324 0.12731065 -0.109123416 0.69111496 0.3000894
0.1545915 0.51833624 0.090936184 -0.21824683 0.027280854 -0.29099578 -0.118217036 0.309183
-0.20915322 -0.36374474 -0.054561708 -0.2637149 -0.1000298 0.090936184 0.2637149 0.32737026
00000000: b61f f513 02e1 e423 f721 e8f9 0311 fcfd
00000010: c61c 14f0 0fff e8e9 d009 ebff 1ec3 b415
00000020: ecf7 1fdc eded 14f0 fb06 07e9 fe03 d211
00000030: 0ced 0cdc eaaa 10ef bfda 3aa9 e901 e303
00000040: 28e1 ab05 0519 0bf1 1b0d 1109 ea0e 0206
00000050: dd18 1505 f025 65eb f9e4 23ea 1710 0d33
00000060: 21b2 f108 feee 1b21 19fc e01c cdef 2ef1
00000070: 0bfb f8e3 fffa 25f6 08f2 120c 04a5 eefe
00000080: f6fb 0422 0e1d beef 0de7 2f00 f9f1 bd06
00000090: 05f5 db22 1309 1aef 1f3b eb24 12fd e80e
000000a0: fbef 1007 ae24 f733 0a0a 010f ecfa 4f09
000000b0: 2ee8 4b81 1e11 e3e0 03e7 eef1 d519 f0c8
000000c0: caf4 e938 12f6 eade 05fd fd0c ed0a 0cf1
000000d0: e8ff f9f6 bd0d 16f8 fa12 0b0c 11f7 b50d
000000e0: 04e7 14e3 ea00 eb13 0cfa 1707 0ef4 4c21
000000f0: 1139 0ae8 03e0 f322 e9d8 fae3 f50a 1d24

recog/cnn/GSE_A_1/GSE_A_1_fully_connected2/GSE_A_1_fully_connected2/Tensordot/MatMul i1 [96, 6] scale=0.031016545 zero_point=0
1.085579 0.15508273 0.49626473 -0.65134746 0.0 -0.15508273 1.1786287 2.388274
0.93049634 -0.40321508 1.2096453 -0.09304964 -0.21711582 -0.09304964 0.031016545 -0.031016545
-0.09304964 -0.15508273 0.15508273 0.06203309 -0.18609928 0.21711582 -0.031016545 0.18609928
3.3808033 2.5743732 2.6053898 0.5272813 3.690969 0.15508273 0.21711582 0.18609928
0.15508273 0.2791489 -0.31016546 -0.12406618 -0.06203309 -0.031016545 -0.09304964 -0.21711582
-0.031016545 -0.18609928 -0.682364 0.06203309 0.24813236 0.18609928 -0.5582978 -0.18609928
0.6203309 2.5743732 0.8684633 -0.15508273 0.37219855 -0.15508273 -0.12406618 -0.18609928
-0.06203309 -0.341182 -0.031016545 -0.24813236 -0.031016545 0.5582978 -0.09304964 -0.24813236
-0.031016545 0.12406618 -0.031016545 -0.06203309 -0.15508273 0.31016546 -0.24813236 0.09304964
-0.09304964 0.031016545 0.06203309 -0.24813236 -0.031016545 0.0 0.15508273 0.15508273
0.0 -0.09304964 -0.12406618 0.15508273 0.21711582 -0.031016545 -0.15508273 0.06203309
0.031016545 -0.15508273 -0.15508273 0.031016545 0.09304964 0.12406618 -0.18609928 0.0
1.3337115 0.40321508 0.06203309 -0.06203309 -0.031016545 0.06203309 -0.15508273 -0.2791489
-0.6203309 0.31016546 -0.37219855 -0.06203309 -0.06203309 -0.09304964 -0.2791489 -0.06203309
0.12406618 -0.06203309 -0.12406618 0.24813236 0.031016545 0.031016545 -0.09304964 0.09304964
-0.15508273 -0.15508273 0.0 -0.18609928 -0.12406618 0.21711582 -0.65134746 0.031016545
-1.3957446 -0.09304964 -0.8684633 0.0 0.06203309 -0.24813236 -0.21711582 -0.341182
-0.12406618 0.21711582 0.15508273 1.023546 -0.09304964 -0.21711582 0.09304964 0.12406618
0.0 0.0 -0.031016545 -0.06203309 -0.06203309 0.18609928 -0.06203309 0.18609928
0.09304964 0.09304964 -0.031016545 0.09304964 -0.09304964 0.031016545 -0.031016545 -0.12406618
-0.06203309 0.031016545 -0.12406618 -0.2791489 -0.15508273 -0.09304964 -0.31016546 0.06203309
-0.2791489 0.0 0.12406618 -0.06203309 -0.43423164 0.0 -0.031016545 0.49626473
-0.09304964 -0.06203309 0.06203309 -0.031016545 0.24813236 1.2716783 1.2406619 -0.37219855
0.12406618 -0.18609928 1.5818439 2.4813237 0.7133805 -1.085579 0.99252945 0.12406618
-0.24813236 -0.21711582 -0.12406618 -0.09304964 -0.031016545 -0.12406618 0.09304964 0.09304964
0.09304964 0.15508273 -0.031016545 0.18609928 -0.24813236 -0.341182 0.0 -0.24813236
-0.15508273 0.031016545 0.031016545 -0.09304964 0.06203309 0.031016545 -0.09304964 0.0
-0.12406618 -0.24813236 0.031016545 -0.21711582 -0.15508273 0.15508273 0.0 -0.09304964
-0.09304964 0.0 0.0 0.24813236 2.4503071 2.7914891 2.3572574 0.80643016
2.3572574 -0.21711582 0.31016546 0.31016546 -0.15508273 -0.58931434 -0.21711582 -0.15508273
-0.06203309 0.031016545 0.0 0.12406618 -0.09304964 0.12406618 0.18609928 -0.031016545
-0.09304964 -0.15508273 -0.682364 0.09304964 -0.06203309 -0.031016545 -0.031016545 -0.031016545
00000000: 2305 10eb 00fb 264d 1ef3 27fd f9fd 01ff
00000010: fdfb 0502 fa07 ff06 6d53 5411 7705 0706
00000020: 0509 f6fc feff fdf9 fffa ea02 0806 eefa
00000030: 1453 1cfb 0cfb fcfa fef5 fff8 ff12 fdf8
00000040: ff04 fffe fb0a f803 fd01 02f8 ff00 0505
00000050: 00fd fc05 07ff fb02 01fb fb01 0304 fa00
00000060: 2b0d 02fe ff02 fbf7 ec0a f4fe fefd f7fe
00000070: 04fe fc08 0101 fd03 fbfb 00fa fc07 eb01
00000080: d3fd e400 02f8 f9f5 fc07 0521 fdf9 0304
00000090: 0000 fffe fe06 fe06 0303 ff03 fd01 fffc
000000a0: fe01 fcf7 fbfd f602 f700 04fe f200 ff10
000000b0: fdfe 02ff 0829 28f4 04fa 3350 17dd 2004
000000c0: f8f9 fcfd fffc 0303 0305 ff06 f8f5 00f8
000000d0: fb01 01fd 0201 fd00 fcf8 01f9 fb05 00fd
000000e0: fd00 0008 4f5a 4c1a 4cf9 0a0a fbed f9fb
000000f0: fe01 0004 fd04 06ff fdfb ea03 feff ffff

recog/cnn/GSE_B_2/GSE_B_2_fully_connected1/GSE_B_2_fully_connected1/Tensordot/MatMul i1 [9, 156] scale=0.01701976 zero_point=0
-0.06807904 0.22125688 -0.18721735 -0.2552964 0.0 0.05105928 -0.01701976 -0.22125688
-0.23827663 0.18721735 -0.27231616 -0.03403952 -0.03403952 -0.06807904 -0.15317784 0.01701976
0.32337543 0.01701976 0.06807904 0.01701976 -0.0850988 0.01701976 -0.2552964 -0.20423712
0.05105928 0.119138315 0.13615808 -0.23827663 0.0850988 0.0850988 -0.22125688 -0.06807904
0.06807904 0.06807904 -0.13615808 -0.4595335 0.1701976 0.0 0.13615808 0.35741496
-0.10211856 0.1701976 0.15317784 -0.22125688 0.13615808 0.13615808 0.03403952 0.119138315
-0.15317784 0.03403952 0.119138315 -0.03403952 -0.8169485 0.0 -0.20423712 0.22125688
-0.20423712 -0.30635568 0.10211856 0.03403952 0.15317784 0.20423712 -0.05105928 -0.18721735
0.3744347 0.15317784 0.0 -0.06807904 -0.05105928 0.20423712 0.01701976 -0.0850988
0.2893359 0.8339682 0.0 -0.03403952 0.2552964 0.10211856 -0.22125688 0.0
0.10211856 -0.01701976 -0.06807904 0.20423712 0.119138315 0.06807904 0.425494 -0.05105928
-0.03403952 0.49357304 -0.6637706 0.10211856 0.15317784 -0.3403952 -0.22125688 0.01701976
0.0 -0.0850988 -0.06807904 0.2893359 -0.01701976 0.05105928 0.3403952 0.32337543
-0.13615808 0.0850988 0.10211856 -0.13615808 0.01701976 0.18721735 -0.20423712 0.0
-0.03403952 -0.2552964 0.23827663 -0.05105928 -0.15317784 -0.22125688 -0.0850988 0.01701976
-0.2893359 0.20423712 0.15317784 0.01701976 0.20423712 1.0211856 0.18721735 -0.10211856
0.01701976 -0.22125688 -0.05105928 -0.4595335 -0.05105928 0.119138315 0.15317784 -0.2893359
0.03403952 0.01701976 0.05105928 0.10211856 -0.06807904 -0.27231616 0.18721735 0.03403952
0.20423712 -0.22125688 2.1615095 0.15317784 -0.10211856 0.0 0.06807904 0.23827663
-0.49357304 0.05105928 -0.15317784 0.10211856 0.0850988 -0.49357304 0.119138315 0.7318497
-0.05105928 0.0 -0.0850988 -0.52761257 0.2552964 0.0850988 0.4595335 -0.119138315
-0.5446323 0.4595335 -0.13615808 0.5446323 -0.47655326 0.23827663 -0.3744347 -0.01701976
0.44251376 0.22125688 0.01701976 0.56165206 -0.22125688 0.10211856 0.05105928 -0.5446323
0.23827663 -0.119138315 -0.7148299 -0.7999287 0.0 0.2552964 -0.10211856 -0.47655326
0.10211856 0.2552964 -0.0850988 0.10211856 0.64675087 -0.2893359 0.01701976 0.2552964
-0.06807904 -0.4595335 0.2893359 0.35741496 0.2552964 0.52761257 -0.23827663 -0.10211856
-0.119138315 -0.10211856 -0.03403952 0.6297311 -0.27231616 0.05105928 0.35741496 0.22125688
0.47655326 0.10211856 0.2552964 -0.119138315 -0.2893359 0.01701976 0.47655326 -0.13615808
0.18721735 0.35741496 0.23827663 0.30635568 -0.06807904 0.1701976 -0.0850988 -0.0850988
0.13615808 -0.18721735 -0.6978102 -0.47655326 -0.22125688 -0.01701976 0.6807904 -0.3403952
-0.01701976 0.20423712 0.15317784 0.05105928 0.5956916 -0.35741496 -0.9531065 -0.01701976
0.425494 -0.13615808 0.10211856 -0.32337543 0.06807904 -0.30635568 0.0850988 0.20423712
00000000: fc0d f5f1 0003 fff3 f20b f0fe fefc f701
00000010: 1301 0401 fb01 f1f4 0307 08f2 0505 f3fc
00000020: 0404 f8e5 0a00 0815 fa0a 09f3 0808 0207
00000030: f702 07fe d000 f40d f4ee 0602 090c fdf5
00000040: 1609 00fc fd0c 01fb 1131 00fe 0f06 f300
00000050: 06ff fc0c 0704 19fd fe1d d906 09ec f301
00000060: 00fb fc11 ff03 1413 f805 06f8 010b f400
00000070: fef1 0efd f7f3 fb01 ef0c 0901 0c3c 0bfa
00000080: 01f3 fde5 fd07 09ef 0201 0306 fcf0 0b02
00000090: 0cf3 7f09 fa00 040e e303 f706 05e3 072b
000000a0: fd00 fbe1 0f05 1bf9 e01b f820 e40e eaff
000000b0: 1a0d 0121 f306 03e0 0ef9 d6d1 000f fae4
000000c0: 060f fb06 26ef 010f fce5 1115 0f1f f2fa
000000d0: f9fa fe25 f003 150d 1c06 0ff9 ef01 1cf8
000000e0: 0b15 0e12 fc0a fbfb 08f5 d7e4 f3ff 28ec
000000f0: ff0c 0903 23eb c8ff 19f8 06ed 04ee 050c

recog/cnn/GSE_B_2/GSE_B_2_fully_connected2/GSE_B_2_fully_connected2/Tensordot/MatMul i1 [156, 9] scale=0.014632628 zero_point=0
-0.17559154 -0.3658157 0.14632629 -0.029265257 0.16095892 0.21948943 -0.08779577 0.1024284
0.14632629 -0.043897886 -0.27801993 0.13169366 0.16095892 -0.13169366 0.0 -0.058530513
-0.073163144 0.058530513 -0.014632628 -0.23412205 0.1024284 -0.014632628 -0.14632629 0.043897886
0.0 0.14632629 0.029265257 0.0 -0.27801993 0.16095892 -0.13169366 -0.029265257
0.08779577 -0.08779577 0.1024284 0.029265257 -0.014632628 -0.3072852 -0.1024284 0.16095892
0.08779577 0.058530513 -0.043897886 0.1024284 0.0 -0.058530513 -0.16095892 -0.16095892
-0.19022417 -0.043897886 -0.08779577 -0.24875468 0.11706103 -0.043897886 -0.26338732 -0.32191783
-0.11706103 -0.13169366 -0.043897886 0.24875468 -0.1024284 -0.16095892 0.16095892 -0.6145704
-0.21948943 -0.14632629 0.16095892 -1.0535493 0.3511831 -0.24875468 0.1024284 0.16095892
-0.029265257 -0.29265258 -0.029265257 -0.08779577 -0.043897886 -0.08779577 -0.043897886 -0.1024284
0.029265257 0.043897886 -0.23412205 0.043897886 0.073163144 0.073163144 0.014632628 -0.2048568
-0.029265257 -0.043897886 0.13169366 -0.16095892 0.14632629 0.029265257 0.1024284 -0.16095892
-0.17559154 -0.14632629 -0.29265258 -0.1024284 -0.29265258 0.13169366 -0.19022417 -0.1024284
0.08779577 0.029265257 -0.16095892 0.058530513 -0.24875468 -0.14632629 -0.1024284 -0.029265257
-0.058530513 -0.029265257 -0.21948943 -0.17559154 -0.043897886 0.073163144 -0.3072852 -0.08779577
0.14632629 -0.043897886 0.058530513 0.0 0.19022417 -0.058530513 -0.058530513 -0.21948943
0.13169366 -0.043897886 0.014632628 -0.1024284 -0.17559154 0.17559154 0.014632628 -0.8194272
-0.11706103 0.073163144 0.058530513 -0.19022417 -0.7316314 -0.4097136 -0.14632629 0.1024284
-0.014632628 -0.08779577 0.058530513 0.043897886 -0.14632629 0.014632628 -0.21948943 0.0
-0.29265258 -0.38044834 -0.24875468 0.014632628 0.08779577 0.3511831 0.3072852 -0.4097136
-0.11706103 -0.17559154 -0.043897886 -0.1024284 0.23412205 -0.11706103 0.073163144 -0.073163144
-0.39508095 -0.014632628 -0.043897886 -0.17559154 -0.3072852 0.029265257 0.08779577 0.029265257
0.058530513 0.043897886 -0.08779577 -0.043897886 0.19022417 0.0 -0.043897886 0.14632629
-0.55603987 -0.6145704 -0.7901619 -0.043897886 0.08779577 -0.512142 -0.21948943 0.14632629
0.17559154 -0.55603987 -0.65846825 0.073163144 0.073163144 0.058530513 0.0 -0.32191783
-0.073163144 0.043897886 -0.11706103 -0.029265257 0.13169366 -0.1024284 -0.073163144 0.1024284
-0.1024284 -0.16095892 0.1024284 -0.014632628 -0.029265257 -0.33655044 -0.014632628 -0.16095892
-0.073163144 -0.13169366 0.058530513 -0.029265257 0.16095892 0.058530513 -0.45361146 0.1024284
-0.043897886 -0.014632628 -0.3511831 0.029265257 0.16095892 -0.029265257 0.08779577 0.029265257
0.1024284 0.0 -0.1024284 -0.24875468 -0.19022417 0.029265257 0.0 0.058530513
-0.1024284 0.13169366 0.08779577 -0.073163144 -0.32191783 0.073163144 -0.16095892 -0.1024284
0.0 0.014632628 0.08779577 0.043897886 -0.29265258 -0.3658157 0.0 0.1024284
00000000: f4e7 0afe 0b0f fa07 0afd ed09 0bf7 00fc
00000010: fb04 fff0 07ff f603 000a 0200 ed0b f7fe
00000020: 06fa 0702 ffeb f90b 0604 fd07 00fc f5f5
00000030: f3fd faef 08fd eeea f8f7 fd11 f9f5 0bd6
00000040: f1f6 0bb8 18ef 070b feec fefa fdfa fdf9
00000050: 0203 f003 0505 01f2 fefd 09f5 0a02 07f5
00000060: f4f6 ecf9 ec09 f3f9 0602 f504 eff6 f9fe
00000070: fcfe f1f4 fd05 ebfa 0afd 0400 0dfc fcf1
00000080: 09fd 01f9 f40c 01c8 f805 04f3 cee4 f607
00000090: fffa 0403 f601 f100 ece6 ef01 0618 15e4
000000a0: f8f4 fdf9 10f8 05fb e5ff fdf4 eb02 0602
000000b0: 0403 fafd 0d00 fd0a dad6 cafd 06dd f10a
000000c0: 0cda d305 0504 00ea fb03 f8fe 09f9 fb07
000000d0: f9f5 07ff fee9 fff5 fbf7 04fe 0b04 e107
000000e0: fdff e802 0bfe 0602 0700 f9ef f302 0004
000000f0: f909 06fb ea05 f5f9 0001 0603 ece7 0007

recog/cnn/conv2d/Conv2D i1 [32, 3, 3, 3]
-16 -18 -10 -4 13 0 9 20
6 -9 42 11 41 97 31 33
56 6 0 -17 -2 0 -63 -11
-53 -127 -32 -58 -121 -32 47 75
59 11 18 5 -52 -117 -25 77
127 72 -27 24 -46 -19 -26 4
49 74 25 -26 -57 -64 52 60
17 -26 -103 -21 -22 37 -1 -49
-90 -40 -35 127 13 70 -16 31
5 36 24 47 -43 6 -41 -8
-30 -2 34 -28 -35 100 -65 -25
41 -23 52 -127 68 -26 67 -41
-37 76 -36 18 -73 65 72 -127
54 -16 10 8 20 14 9 -127
-4 4 8 -41 -8 21 18 8
18 2 2 13 1 -5 17 17
6 14 6 -6 13 2 -4 7
10 5 5 -127 6 4 15 6
-3 12 -1 3 15 4 -1 10
-4 -6 6 -3 1 11 -1 -6
7 -3 -63 14 49 -127 24 101
-96 16 80 66 -6 -64 37 -12
-23 -29 0 23 73 -10 -59 92
-21 -70 49 -10 -34 69 89 50
32 38 18 -101 -127 -67 -34 -40
-28 6 -2 0 37 45 20 -48
-61 -26 -10 -21 -5 49 78 38
40 36 -31 -96 -5 65 58 -49
-35 11 53 40 36 -127 -42 -48
80 25 13 55 19 -85 -109 -24
70 69 -16 -127 -113 -59 -87 -91
-13 -4 1 16 8 30 10 101
00000000: f0ee f6fc 0d00 0914 06f7 2a0b 2961 1f21
00000010: 3806 00ef fe00 c1f5 cb81 e0c6 87e0 2f4b
00000020: 3b0b 1205 cc8b e74d 7f48 e518 d2ed e604
00000030: 314a 19e6 c7c0 343c 11e6 99eb ea25 ffcf
00000040: a6d8 dd7f 0d46 f01f 0524 182f d506 d7f8
00000050: e2fe 22e4 dd64 bfe7 29e9 3481 44e6 43d7
00000060: db4c dc12 b741 4881 36f0 0a08 140e 0981
00000070: fc04 08d7 f815 1208 1202 020d 01fb 1111
00000080: 060e 06fa 0d02 fc07 0a05 0581 0604 0f06
00000090: fd0c ff03 0f04 ff0a fcfa 06fd 010b fffa
000000a0: 07fd c10e 3181 1865 a010 5042 fac0 25f4
000000b0: e9e3 0017 49f6 c55c ebba 31f6 de45 5932
000000c0: 2026 129b 81bd ded8 e406 fe00 252d 14d0
000000d0: c3e6 f6eb fb31 4e26 2824 e1a0 fb41 3acf
000000e0: dd0b 3528 2481 d6d0 5019 0d37 13ab 93e8
000000f0: 4645 f081 8fc5 a9a5 f3fc 0110 081e 0a65

recog/cnn/extra/Conv2D i1 [64, 3, 3, 32]
7 -9 -12 -28 -12 -22 -28 -8
5 8 3 8 -20 11 -21 -6
-35 -22 -18 2 2 -18 4 8
-10 -24 0 0 -23 3 -6 0
11 -1 16 0 17 -11 20 7
-1 31 7 31 0 2 8 24
-10 11 4 -14 7 -5 11 23
-17 -1 4 10 -11 13 6 10
-20 -24 -58 14 17 7 15 -21
-37 -2 -6 14 -21 1 -34 10
-23 23 -66 -2 13 -21 8 -6
-8 -9 -16 2 -4 17 8 -14
14 21 -9 1 -8 -16 1 -17
6 -23 11 -7 25 15 1 -18
-4 1 19 18 -40 29 6 0
25 12 37 14 5 24 23 3
-7 26 -25 3 13 -20 0 -18
-2 -19 6 -1 30 4 -4 -3
10 1 -37 22 -9 27 0 6
32 11 24 -21 19 30 35 -22
18 10 -44 -24 -19 -7 2 -53
-4 -29 35 -6 5 33 -63 4
-1 -9 -78 3 -11 20 22 10
10 -2 7 1 -5 50 45 -28
12 8 -29 10 -14 -11 -5 -6
-18 -21 -10 -16 5 -14 6 -9
-13 18 0 2 -3 -1 2 -12
7 20 13 21 14 -3 -19 13
14 -10 -43 15 -2 17 9 3
-22 -18 -13 16 -17 -24 -10 6
2 -13 -46 2 -11 -21 26 -16
2 2 -29 -13 19 -33 -4 -34
00000000: 07f7 f4e4 f4ea e4f8 0508 0308 ec0b ebfa
00000010: ddea ee02 02ee 0408 f6e8 0000 e903 fa00
00000020: 0bff 1000 11f5 1407 ff1f 071f 0002 0818
00000030: f60b 04f2 07fb 0b17 efff 040a f50d 060a
00000040: ece8 c60e 1107 0feb dbfe fa0e eb01 de0a
00000050: e917 befe 0deb 08fa f8f7 f002 fc11 08f2
00000060: 0e15 f701 f8f0 01ef 06e9 0bf9 190f 01ee
00000070: fc01 1312 d81d 0600 190c 250e 0518 1703
00000080: f91a e703 0dec 00ee feed 06ff 1e04 fcfd
00000090: 0a01 db16 f71b 0006 200b 18eb 131e 23ea
000000a0: 120a d4e8 edf9 02cb fce3 23fa 0521 c104
000000b0: fff7 b203 f514 160a 0afe 0701 fb32 2de4
000000c0: 0c08 e30a f2f5 fbfa eeeb f6f0 05f2 06f7
000000d0: f312 0002 fdff 02f4 0714 0d15 0efd ed0d
000000e0: 0ef6 d50f fe11 0903 eaee f310 efe8 f606
000000f0: 02f3 d202 f5eb 1af0 0202 e3f3 13df fcde

recog/cnn/conv2d_1/Conv2D i1 [96, 3, 3, 64]
-75 -20 17 -30 35 -16 11 31
51 -1 4 -22 2 27 30 12
13 -4 1 -4 -30 3 12 -4
-18 64 -13 -30 28 -14 -34 -6
-10 -20 18 -26 -17 -35 -4 16
-24 -10 2 1 7 22 -19 -24
-38 19 10 6 -41 36 -10 -11
-21 -29 0 -12 -7 9 -22 -28
-15 -36 -18 -18 11 15 20 -7
45 17 -26 44 32 -7 -35 -7
-10 6 -33 -5 -20 -21 -4 -54
6 -41 -89 55 -14 -30 9 1
9 -23 -31 -3 -10 -43 -5 -15
-25 56 -67 -26 57 40 20 4
-23 -20 -12 -16 25 23 -16 19
-51 16 1 16 3 47 -30 -16
-6 -16 9 5 -25 4 3 -11
-33 -18 8 -19 -26 -29 -5 20
11 8 -2 7 -43 -4 -19 -2
-67 -20 15 90 19 -13 28 -10
70 23 -22 -24 -103 -17 -13 -27
18 -23 43 -3 -21 -39 -25 -12
35 -14 -18 12 7 -17 19 60
-33 18 22 -9 10 -15 28 14
-13 14 14 18 -44 29 15 -37
-10 15 14 -9 11 -34 20 25
13 -6 2 4 -53 57 -13 -10
-57 -23 54 0 8 9 36 25
-23 -34 -35 -114 8 42 28 -14
-19 -30 -10 -12 -127 1 -32 6
23 -13 -4 7 -45 22 34 -29
9 -44 56 -19 -3 -88 -3 3
00000000: b5ec 11e2 23f0 0b1f 33ff 04ea 021b 1e0c
00000010: 0dfc 01fc e203 0cfc ee40 f3e2 1cf2 defa
00000020: f6ec 12e6 efdd fc10 e8f6 0201 0716 ede8
00000030: da13 0a06 d724 f6f5 ebe3 00f4 f909 eae4
00000040: f1dc eeee 0b0f 14f9 2d11 e62c 20f9 ddf9
00000050: f606 dffb eceb fcca 06d7 a737 f2e2 0901
00000060: 09e9 e1fd f6d5 fbf1 e738 bde6 3928 1404
00000070: e9ec f4f0 1917 f013 cd10 0110 032f e2f0
00000080: faf0 0905 e704 03f5 dfee 08ed e6e3 fb14
00000090: 0b08 fe07 d5fc edfe bdec 0f5a 13f3 1cf6
000000a0: 4617 eae8 99ef f3e5 12e9 2bfd ebd9 e7f4
000000b0: 23f2 ee0c 07ef 133c df12 16f7 0af1 1c0e
000000c0: f30e 0e12 d41d 0fdb f60f 0ef7 0bde 1419
000000d0: 0dfa 0204 cb39 f3f6 c7e9 3600 0809 2419
000000e0: e9de dd8e 082a 1cf2 ede2 f6f4 8101 e006
000000f0: 17f3 fc07 d316 22e3 09d4 38ed fda8 fd03

recog/cnn/conv2d_2/Conv2D i1 [156, 3, 3, 96]
-25 -15 15 30 -1 -40 -6 -14
3 -14 21 -6 -6 -2 65 -5
-12 32 1 19 15 -26 39 -11
-11 5 10 -15 47 -16 8 -18
15 4 28 -4 0 23 -28 -26
-1 6 -9 5 -4 -10 4 -20
7 46 0 41 0 12 -29 -21
13 -1 56 -3 3 -31 -15 17
43 -39 11 32 10 -30 -14 -43
-3 -47 8 18 -8 -4 -16 51
-16 -43 53 -19 -73 -15 -8 -1
-23 2 25 5 2 -3 24 3
-11 26 -18 2 -46 -60 1 -26
9 22 11 -5 -2 -4 -11 -5
-9 -6 -3 10 21 -42 -17 2
-13 -2 -27 27 2 1 4 -12
-32 -1 -30 -9 2 36 28 28
-18 14 18 0 -1 14 9 33
-10 -2 -6 24 -4 -1 4 29
-25 -1 -39 -38 31 -27 4 -8
6 3 6 -16 6 -37 31 4
8 -46 -41 3 -23 -5 -38 61
-13 -51 8 16 -32 -11 12 12
-30 -18 34 17 0 3 21 -23
-11 11 -24 -5 -3 -29 29 -17
-1 13 -25 -36 -2 -9 -8 -10
1 2 5 -2 21 -7 -37 -14
-68 -3 4 4 -48 16 -6 0
18 -6 -3 -5 6 16 -2 7
9 -9 21 1 -5 51 18 8
21 30 -10 22 -6 15 38 -38
25 8 -56 -9 55 -4 1 15
00000000: e7f1 0f1e ffd8 faf2 03f2 15fa fafe 41fb
00000010: f420 0113 0fe6 27f5 f505 0af1 2ff0 08ee
00000020: 0f04 1cfc 0017 e4e6 ff06 f705 fcf6 04ec
00000030: 072e 0029 000c e3eb 0dff 38fd 03e1 f111
00000040: 2bd9 0b20 0ae2 f2d5 fdd1 0812 f8fc f033
00000050: f0d5 35ed b7f1 f8ff e902 1905 02fd 1803
00000060: f51a ee02 d2c4 01e6 0916 0bfb fefc f5fb
00000070: f7fa fd0a 15d6 ef02 f3fe e51b 0201 04f4
00000080: e0ff e2f7 0224 1c1c ee0e 1200 ff0e 0921
00000090: f6fe fa18 fcff 041d e7ff d9da 1fe5 04f8
000000a0: 0603 06f0 06db 1f04 08d2 d703 e9fb da3d
000000b0: f3cd 0810 e0f5 0c0c e2ee 2211 0003 15e9
000000c0: f50b e8fb fde3 1def ff0d e7dc fef7 f8f6
000000d0: 0102 05fe 15f9 dbf2 bcfd 0404 d010 fa00
000000e0: 12fa fdfb 0610 fe07 09f7 1501 fb33 1208
000000f0: 151e f616 fa0f 26da 1908 c8f7 37fc 010f

recog/cnn/conv2d_3/Conv2D i1 [224, 3, 3, 156]
-23 -30 12 5 -3 -16 3 52
13 -5 9 -24 16 28 16 18
-24 -29 14 25 19 -12 -26 13
8 -31 -9 8 36 18 12 -3
-58 -14 28 38 3 41 3 -7
24 39 27 -8 -29 2 -42 7
26 6 -63 -16 10 11 5 3
32 33 -28 -30 -26 -30 -22 13
-28 -27 5 8 -40 5 4 -35
-15 33 17 -3 -16 -31 -7 22
31 -30 20 9 12 -19 -11 -46
-17 -8 5 14 -4 -12 48 -51
11 -3 16 -38 -23 -28 24 16
21 55 8 22 -61 46 -37 22
0 -17 -68 -2 33 -1 -15 32
-23 20 8 0 17 -38 -36 -47
-25 38 -51 -41 29 -21 21 -79
3 -37 1 20 36 18 13 16
31 14 -15 -22 6 2 29 -12
8 -77 12 -12 -33 40 -7 27
2 -10 -1 54 -39 5 -21 43
17 -22 -36 29 -12 3 7 18
25 15 -39 11 2 -8 67 35
-4 -38 -13 49 1 -42 0 10
-44 0 7 59 19 -6 -30 4
-81 11 -11 5 23 10 -26 24
28 -17 2 52 36 25 11 8
58 79 -13 -10 -2 -18 -10 -36
3 -65 -73 -66 -22 10 -3 -23
8 17 -5 21 19 -10 33 -39
-23 15 -4 -70 30 -39 27 -1
-33 29 -27 22 -10 -6 -11 7
00000000: e9e2 0c05 fdf0 0334 0dfb 09e8 101c 1012
00000010: e8e3 0e19 13f4 e60d 08e1 f708 2412 0cfd
00000020: c6f2 1c26 0329 03f9 1827 1bf8 e302 d607
00000030: 1a06 c1f0 0a0b 0503 2021 e4e2 e6e2 ea0d
00000040: e4e5 0508 d805 04dd f121 11fd f0e1 f916
00000050: 1fe2 1409 0ced f5d2 eff8 050e fcf4 30cd
00000060: 0bfd 10da e9e4 1810 1537 0816 c32e db16
00000070: 00ef bcfe 21ff f120 e914 0800 11da dcd1
00000080: e726 cdd7 1deb 15b1 03db 0114 2412 0d10
00000090: 1f0e f1ea 0602 1df4 08b3 0cf4 df28 f91b
000000a0: 02f6 ff36 d905 eb2b 11ea dc1d f403 0712
000000b0: 190f d90b 02f8 4323 fcda f331 01d6 000a
000000c0: d400 073b 13fa e204 af0b f505 170a e618
000000d0: 1cef 0234 2419 0b08 3a4f f3f6 feee f6dc
000000e0: 03bf b7be ea0a fde9 0811 fb15 13f6 21d9
000000f0: e90f fcba 1ed9 1bff df1d e516 f6fa f507

recog/cnn/conv2d_4/Conv2D i1 [164, 1, 1, 320]
27 11 -26 57 -29 19 42 -22
9 -1 -5 17 13 36 64 -73
5 20 3 -8 -24 -17 18 8
9 -17 16 -31 -6 -7 16 13
-16 -11 -92 43 -2 -19 -6 8
7 -14 11 40 -30 0 -42 36
-16 -3 -41 23 3 -16 -127 13
3 -2 10 -6 12 51 6 29
16 14 -14 5 27 -23 -66 -38
16 24 -1 4 12 11 5 -32
48 14 -3 -11 16 -18 29 -40
-14 41 35 -3 74 -7 8 -10
1 3 22 -4 66 -17 45 -3
0 -23 -63 19 18 -2 16 28
-9 40 -37 -62 -14 -21 -18 16
-15 25 -4 -10 -8 -18 3 2
14 -10 -19 24 11 8 4 -20
4 -18 34 42 -56 17 2 -18
11 -24 -5 -37 34 22 2 5
5 -27 -19 13 18 -15 -34 12
11 9 14 14 -5 -14 -11 -20
43 -13 7 -57 -12 -17 -26 1
16 -95 -16 10 26 21 -16 -23
-5 4 -24 -5 -25 -14 -11 -13
30 -8 -31 -1 9 27 -36 19
-19 -20 -7 -45 5 -25 -3 15
13 52 -10 0 19 38 14 -49
5 8 23 -41 16 32 44 -1
11 -15 5 5 14 -12 -22 5
-14 22 -4 12 5 -15 -2 3
-14 4 -12 -3 1 106 -13 -11
4 -8 -15 22 15 0 6 -6
00000000: 1b0b e639 e313 2aea 09ff fb11 0d24 40b7
00000010: 0514 03f8 e8ef 1208 09ef 10e1 faf9 100d
00000020: f0f5 a42b feed fa08 07f2 0b28 e200 d624
00000030: f0fd d717 03f0 810d 03fe 0afa 0c33 061d
00000040: 100e f205 1be9 beda 1018 ff04 0c0b 05e0
00000050: 300e fdf5 10ee 1dd8 f229 23fd 4af9 08f6
00000060: 0103 16fc 42ef 2dfd 00e9 c113 12fe 101c
00000070: f728 dbc2 f2eb ee10 f119 fcf6 f8ee 0302
00000080: 0ef6 ed18 0b08 04ec 04ee 222a c811 02ee
00000090: 0be8 fbdb 2216 0205 05e5 ed0d 12f1 de0c
000000a0: 0b09 0e0e fbf2 f5ec 2bf3 07c7 f4ef e601
000000b0: 10a1 f00a 1a15 f0e9 fb04 e8fb e7f2 f5f3
000000c0: 1ef8 e1ff 091b dc13 edec f9d3 05e7 fd0f
000000d0: 0d34 f600 1326 0ecf 0508 17d7 1020 2cff
000000e0: 0bf1 0505 0ef4 ea05 f216 fc0c 05f1 fe03
000000f0: f204 f4fd 016a f3f5 04f8 f116 0f00 06fa
